notebooks/cnn_model_1(3).pt (torch, 189508 bytes, 26 tensors)

conv1.weight f4 [8, 3, 5, 5]
000000 52 eb 04 be 6f e2 33 3e 28 4e 66 3e 39 9f 54 3d
       -0.12980393 0.17566846 0.22490752 0.05190966
000010 bd 0e 17 3e e3 2d 0f bd 47 0a ba 3d 14 2b 4e 3e
       0.14751716 -0.03495587 0.090839915 0.2013362
000020 96 cf 1b 3e e5 b8 db 3d a3 63 a0 bd 9d 51 72 bd
       0.15215907 0.10728625 -0.07831504 -0.059159864
000030 26 15 3c 3a 3a bb fb bd f9 cf ff bc d1 40 87 bc
       0.0007174782 -0.1229157 -0.031227099 -0.016510399
000040 70 ed 35 be fd a3 1f be 18 be 7f bc 81 03 b1 3d
       -0.17766356 -0.155899 -0.015609287 0.086432464
000050 a0 c9 2f bd ce 02 1e be 25 2f 22 be 68 fe be bc
       -0.042916894 -0.15430757 -0.15838297 -0.02331467
000060 c3 dd de 3d 58 14 11 3d 92 06 28 3d c6 1e 44 3e
       0.108821414 0.035419792 0.04102189 0.19152364
000070 b3 bb ee 3d de b1 02 3d f2 c3 11 be 1e 7e 6c 3d
       0.116568945 0.03190791 -0.14234903 0.057737462
000080 50 73 d1 3d ac ec d1 bb 14 af bf 3d 1a 04 22 bd
       0.10227072 -0.0064063873 0.093595654 -0.039554693
000090 d4 c1 25 3d 73 4a cf bc d9 28 ca bd e4 e9 44 bd
       0.040468052 -0.025304055 -0.09871072 -0.048074618
0000a0 21 ce d6 3b ad 5b a1 bd 10 1b a6 bd 36 c1 2a bd
       0.006555334 -0.07878814 -0.081106305 -0.041688167
0000b0 c1 6c 52 3d 83 c7 c9 3c a8 3f d9 3d cc 36 55 3d
       0.051373247 0.024631267 0.106078446 0.05205421
0000c0 a7 e6 91 bc c3 09 9d 3c 19 a2 9f 3d dc 66 b0 3d
       -0.017810179 0.019169694 0.077945895 0.08613369
0000d0 3b 87 f5 3c 6d 3a 29 bd 71 15 76 bd d5 d1 5a 3d
       0.02997171 -0.041315485 -0.060079042 0.053422768
0000e0 83 28 07 be b0 4e 03 3d c6 20 91 be db 93 5b be
       -0.13199048 0.032057464 -0.28345317 -0.21443121
0000f0 dc 77 38 3e 1e 45 31 bd c4 8a 50 be 7c 32 f5 be
       0.18014473 -0.043278806 -0.20365435 -0.4789008
000100 c4 33 b8 be 9c 59 81 3e 83 9c cb bd 9a 87 56 be
       -0.35976994 0.2526368 -0.099419616 -0.20950165
000110 f7 42 81 be 02 d2 b9 3c 31 db 8d 3e d4 94 d4 3d
       -0.25246403 0.022683147 0.27706292 0.10379949
000120 78 e9 cd 3d a2 51 02 bd 1c 06 16 3d 47 b1 00 be
       0.10054296 -0.031816132 0.03662692 -0.12567626
000130 4e 85 09 bb 2c 3b c3 bd 85 52 e2 bd c3 6c 58 be
       -0.0020983997 -0.095327705 -0.110508956 -0.2113524
000140 95 5f a7 bd d8 c7 1b be a5 da 4e 3d dd 55 17 be
       -0.08172528 -0.15212953 0.050501484 -0.14778848
000150 da db 69 bd c2 d8 b6 bd 0a cc 9b 3d fc bc 83 bd
       -0.057094432 -0.08928062 0.07607277 -0.0643253
000160 3c e4 18 be a6 1e f0 bd ab 1c 20 3e cd 8c 9f 3e
       -0.14930815 -0.11724596 0.15635936 0.3116211
000170 0e 00 89 3e ca 89 a4 3c 79 2a d0 bc f6 ec 2f 3e
       0.26757854 0.020085234 -0.025410878 0.17180237
000180 91 b8 f4 3e 98 5f d2 3e 19 3a ad bd e1 9a c3 bd
       0.47797063 0.41088557 -0.08458347 -0.09551025
000190 d7 0d 4e bd 45 38 03 be c5 e0 1e bd 41 6d ec 3c
       -0.050306167 -0.12814434 -0.038788576 0.02886069
0001a0 0c 42 b1 bd 77 ee 30 bd 93 06 04 be a4 91 21 bd
       -0.086551756 -0.043196168 -0.12893133 -0.039445534
0001b0 86 fd ff bd 9b 55 ac bd 28 20 17 be 0f ad 14 bd
       -0.12499528 -0.084147654 -0.1475836 -0.036297854
0001c0 71 fd d1 3c e1 06 b3 3c 69 8c c9 bd 3f 50 a7 bd
       0.025633546 0.021853866 -0.09841234 -0.081696026
0001d0 7c 99 be 3e 10 c4 ab 3e 31 74 3a 3e 98 9d 9a bd
       0.37226474 0.3354802 0.18208386 -0.0754959
0001e0 f8 fa f7 3d 76 b9 be 3e 1e 2c 8a 3e 7e 88 fa 3d
       0.12108415 0.3725087 0.26986784 0.12233065
0001f0 df d7 0f be 13 4b 7c 3b 00 00 c7 bd 97 f9 c4 bd
       -0.14047192 0.0038496896 -0.09716797 -0.09617918
000200 54 5e 30 3d 6b cb 24 3c 1a 68 d4 bd 5b 24 bf bd
       0.04305871 0.010058264 -0.10371418 -0.09333106
000210 4f 24 33 bc ef e3 bc bd 7f dc 45 bd 73 17 ed 3c
       -0.01093395 -0.092231624 -0.048305985 0.028941846
000220 03 27 d9 3c 22 26 d5 bd d4 5f 28 3d c1 f4 84 3d
       0.02650786 -0.10407664 0.041107014 0.064919956
000230 2e eb 40 bd d4 61 b5 ba 3f 6a 33 3e 03 21 0b 3e
       -0.047099285 -0.0013838359 0.17520998 0.13586812
000240 b0 74 4d 3d 23 f3 0b 3e fe 9e e5 3d 42 a6 15 3e
       0.05016011 0.13666968 0.11211966 0.14614204
000250 69 5c aa bc 70 98 b3 bd cf 00 03 3d 1b 45 08 bd
       -0.020796018 -0.087693095 0.031983193 -0.03326903
000260 a2 3b 9a bd 7c ff 04 bd dc b5 44 3d 13 c3 8a bb
       -0.07530905 -0.03247021 0.048024997 -0.0042346804
000270 eb bb a6 be 26 0d b3 be 81 47 77 be 62 6e c9 bc
       -0.32565245 -0.3497097 -0.2414837 -0.024588767
000280 6c 52 e3 3b da ba 87 be f8 f1 56 be 5f 30 07 bd
       0.0069373157 -0.26509744 -0.20990741 -0.033005115
000290 8f e3 de bd e2 c1 b3 3e e7 f7 fb 3d 2d 42 14 bd
       -0.10883247 0.35108858 0.12303143 -0.036195923
0002a0 22 bf dd bd 6c eb ba bd 9a f8 4e 3e 89 c9 93 3e
       -0.10827471 -0.091269344 0.20212021 0.28864697
0002b0 dc b0 88 3d e3 0d d3 3d ff f3 64 3e 82 12 f5 3d
       0.06674358 0.10305383 0.22358702 0.11966421
0002c0 b0 18 bd bc b2 ca 0a 3e 5c 29 5c bd 9c 59 ad 3d
       -0.023083061 0.13553885 -0.05375038 0.08464357
0002d0 e4 62 7f bd 09 bf 03 3d 7a f2 fb bd 3f c6 87 bc
       -0.06235017 0.032164607 -0.12302108 -0.016574023
0002e0 ad 3b 6a bd e3 2f 13 bd 19 53 e2 bd fd ad f8 bd
       -0.057185818 -0.03593434 -0.11051006 -0.12142561
0002f0 9d f5 fd 3d 22 64 fe 3d 4a 29 a8 3d c0 0f 0e 3e
       0.12400363 0.124214426 0.08211 0.13873196
000300 22 72 ef bd 04 5b 0a bc ce 05 a0 3d 8a 2d 6a bb
       -0.11691691 -0.008444551 0.07813607 -0.003573271
000310 9b b5 d6 bd 75 6d 66 bd 7c f8 48 3c d4 47 21 3d
       -0.10483857 -0.05625673 0.012266275 0.03937514
000320 eb 31 1e 3e d9 7c 4c 3e 54 ab 53 3e 94 18 10 bd
       0.1544873 0.199695 0.20670825 -0.03517969
000330 f9 2e f0 3d d8 f7 5f bd 08 e9 a8 bd 84 a0 da bd
       0.11727709 -0.05467972 -0.08247572 -0.10675147
000340 f4 0d 4a 3d 67 e0 e7 3d b7 19 26 3c 18 e3 df 3b
       0.049329713 0.11322098 0.010137967 0.0068324916
000350 b4 af 48 bd 1d 7a ca bd 89 46 c2 bc a5 66 e3 3d
       -0.04899569 -0.098865725 -0.023715274 0.11103562
000360 64 fc 44 bd 59 68 ba bc ef ca 02 be b1 97 f7 bd
       -0.04809226 -0.022754835 -0.12772726 -0.1208948
000370 77 0a 96 bd d0 f6 fb bd e7 f5 d4 bd 85 02 de 3d
       -0.07326215 -0.12302935 -0.10398465 0.10840324
000380 36 4b 94 3d a2 c9 c5 bd 5c 6e ff bc c2 c6 65 3d
       0.07240908 -0.09657599 -0.031180553 0.056097753
000390 81 b5 11 bb 97 7d a8 3d c3 ee 64 bd fa 63 7f 3d
       -0.002223343 0.08227079 -0.055891763 0.062351204
0003a0 03 28 98 bd 0a 53 de 3d 6e a4 bc bd 89 b3 71 3d
       -0.07429507 0.10855682 -0.0921105 0.05900911
0003b0 f1 1b 18 3e ee 54 78 bd f1 7c 6d bc ad 06 74 3c
       0.14854409 -0.06062787 -0.01449512 0.01489417
0003c0 8d 84 67 3d 61 6c 25 bd 5c 23 0e bd b5 76 e9 3d
       0.056522895 -0.04038656 -0.03470169 0.11399595
0003d0 47 7e 8e 3c 7d 1b 51 3c 58 e0 06 3d 13 c3 0b 3e
       0.017394198 0.012762901 0.032928795 0.13648634
0003e0 8d c3 a4 3d 1a bb 54 bd b1 45 42 be 17 ae 1e be
       0.08045111 -0.051936246 -0.18971898 -0.15496098
0003f0 1a fe 98 bd 32 96 f6 bd fd b1 dc bd 36 7d 35 bd
       -0.07470341 -0.12040366 -0.10776136 -0.044308864

conv1.bias f4 [8]
000000 23 d7 5b 3e 5b c4 97 be d2 d2 8b 3c a2 0b 3d 3e
       0.21468787 -0.29641995 0.0170683 0.18461469
000010 3a fb ba bd 80 3d b6 3d 08 24 b4 3d ad 40 79 3e
       -0.09129949 0.08898449 0.08795935 0.24341078

bn1.weight f4 [8]
000000 4a 67 53 3f 75 3b 5f 3f 35 74 99 3f 5d c3 74 3f
       0.8257948 0.872001 1.1988589 0.956106
000010 50 d5 a5 3f 21 db 53 3f d4 51 39 3f 98 f7 90 3f
       1.2955723 0.8275624 0.72390485 1.132556

bn1.bias f4 [8]
000000 76 e6 8e bd 94 7b 1a be 20 1d 80 3e 1d 71 8a be
       -0.06977551 -0.15086204 0.2502222 -0.27039424
000010 da 6e 80 3f d4 2c 2d 3d 33 3e 41 bd 68 2a 83 3f
       1.0033829 0.04227908 -0.04717846 1.0247316

bn1.running_mean f4 [8]
000000 0b 2d 2f 3b e8 c0 5c 3e b7 53 1c be 87 4a 20 bd
       0.0026729729 0.21557963 -0.1526631 -0.039133575
000010 98 b3 bd bd c1 b1 d5 3d 5b f1 e1 bb f7 95 67 3e
       -0.092627704 0.104342945 -0.006895227 0.22615801

bn1.running_var f4 [8]
000000 ab c5 81 3d 23 39 05 3e a7 01 cd 3c cc 1e ef 3d
       0.0633653 0.13010077 0.025025202 0.11675796
000010 cf e6 a1 3b fa d8 17 3c 12 22 37 3d bf a6 94 3b
       0.0049408446 0.00926804 0.044710226 0.0045364792

conv2.weight f4 [16, 8, 5, 5]
000000 a9 fb 3a be 90 89 1a be b6 dd 10 be 2c 2e ed bc
       -0.18260063 -0.15091538 -0.14147076 -0.02895268
000010 6b 73 33 bd 38 d3 69 be b8 b6 5f be 6b 86 8f bd
       -0.043811243 -0.2283448 -0.21847045 -0.0700806
000020 40 6d ba bc be 81 df 3c df 2b 6d be b0 c3 3b be
       -0.022757173 0.027283546 -0.23161267 -0.18336368
000030 3f 6b a5 bd 1d 9d 78 bd 20 18 78 3d 0b e7 29 be
       -0.08077096 -0.06069671 0.060569882 -0.16592042
000040 20 ab 08 be 44 f4 cd bd 7d 0b 94 3d c1 59 07 3d
       -0.13346529 -0.100563556 0.07228754 0.03304458
000050 ba 44 97 bd f6 9f 46 3b d4 da 4c bd a4 ca 56 3d
       -0.073861554 0.0030307746 -0.05001338 0.052439347
000060 27 f7 6f 3d 93 d7 e3 bd a3 7b cf bd 2b d0 ab 3d
       0.058585312 -0.11125102 -0.10131004 0.08389314
000070 53 b8 f3 3d 50 bf f2 3d 48 6e 2d be 3b c5 1d be
       0.119003914 0.11852896 -0.169366 -0.15407269
000080 5a 2b 1c bd e6 3b c0 3d a8 fe 22 3d 6f c0 06 be
       -0.03812728 0.09386425 0.03979364 -0.13159345
000090 84 87 c2 bd d0 6d 76 bc f7 b7 cb ba 2c 83 bc 3c
       -0.09498504 -0.01504083 -0.0015542497 0.023011766
0000a0 01 0d b6 bd 24 c3 00 be fe 11 98 bd 6d a0 55 3b
       -0.08889199 -0.1257444 -0.07425307 0.0032596842
0000b0 0c 2a ae 3b f1 26 1d be 96 6b 11 be a4 69 9c bd
       0.005315071 -0.15346886 -0.14201197 -0.07637337
0000c0 d6 35 cf bd d6 86 e4 bd 7e ad 2d bd 32 13 7c bd
       -0.1011769 -0.111585304 -0.042401783 -0.061541744
0000d0 7f bf 1e be 83 1e 12 bc 02 0f ad bd c1 9b 98 bd
       -0.15502737 -0.008918407 -0.08450128 -0.07451583
0000e0 dc b1 16 be 1d 4d 68 bd b7 d0 08 bd 3a 80 06 3d
       -0.14716285 -0.056714166 -0.03340217 0.03283713
0000f0 54 c8 73 bd 0c 7e a6 bc d8 b5 8d bd 47 ee cb bb
       -0.05951722 -0.020323776 -0.069194496 -0.006223473
000100 c4 90 9f 3b 0d 05 55 3d c7 f1 84 bd 43 2f d9 bd
       0.0048695523 0.05200677 -0.06491428 -0.106047176
000110 ab f8 03 be 8a 0c 83 bd 92 ef 74 3c 33 a2 e5 3c
       -0.12887828 -0.06398876 0.014949696 0.028031444
000120 f2 fd b3 3c f2 b7 9e bd e3 dc 4e bd b9 b1 c0 3d
       0.021971676 -0.077499285 -0.050503623 0.09408898
000130 21 a3 10 3e 92 4e fa 3d d4 73 51 3c 92 52 50 bc
       0.14124729 0.12222017 0.012783963 -0.012714999
000140 2a eb a3 3d 28 ab 3d 3d 6a f5 fe 3d fd 57 32 3d
       0.08003838 0.046305805 0.12449153 0.043540943
000150 5a 1e 3e bd 9a f6 86 bc 9d 9e 84 3d 29 d9 91 3c
       -0.046415664 -0.01647501 0.064755656 0.017803745
000160 ec 24 87 3d 65 9f b6 bc f5 07 ec bd 38 76 19 bd
       0.06598839 -0.022292802 -0.11524955 -0.037466258
000170 02 d5 a1 3d 9f 30 b9 3d 9d 71 4a bd b1 dc f3 bd
       0.07901956 0.09042477 -0.049424756 -0.11907328
000180 71 70 ba bd 9d 21 92 bd b9 20 63 3c df df 1b bd
       -0.09103478 -0.071353175 0.013862782 -0.038055297
000190 1f 35 87 3e c9 f3 98 3e ae e3 54 3e cb ee 8b 3e
       0.26407716 0.29873493 0.20789978 0.27330622
0001a0 ab c0 5b 3e cf b8 09 3e ee 8f 10 3e 8c 94 ca 3d
       0.21460216 0.13449405 0.14117405 0.09891614
0001b0 9c 96 8a 3d db c4 c6 3d 62 86 a5 3c 29 8a 9e bb
       0.06767008 0.09705516 0.02020568 -0.0048382473
0001c0 7f 4e da bc 2d 6e a8 bd 54 6b 1c bd 97 3b 04 bd
       -0.026648758 -0.08224139 -0.038188294 -0.03228339
0001d0 10 20 2c be 0d e2 51 be 3d 72 45 be 60 10 34 be
       -0.16809106 -0.20496388 -0.1928186 -0.17584372
0001e0 95 5b f4 bd ac 7f 98 be 7d aa b2 be 6d 42 9c be
       -0.119315304 -0.29784906 -0.34895697 -0.3051943
0001f0 e3 dc ea bd a8 5f 00 3e 1a 13 4c 3e f5 59 fe 3d
       -0.11467912 0.1253649 0.19929162 0.12419502
000200 d1 42 f4 3d e6 8d 95 3d e7 b9 8b 3d 10 ec b0 3d
       0.11926807 0.073024556 0.068225674 0.08638775
000210 aa 1d ae 3d 27 67 00 3d f4 c8 93 bc 14 9b 40 bd
       0.08501752 0.031348374 -0.018040158 -0.047022894
000220 8c 2b 6a 3b fe 4a 82 bd c7 f9 0e be 49 fc e4 bd
       0.0035731522 -0.0636196 -0.1396247 -0.11180932
000230 46 21 26 be 4c 36 e6 bd d8 2c 2f be 39 3b a7 bd
       -0.1622363 -0.11240825 -0.1710695 -0.08165593
000240 f4 40 59 bd ad 09 48 be 06 8f 75 be ec d3 0d be
       -0.05304046 -0.19534941 -0.2398034 -0.13850373
000250 3d 0f 27 be 8f 39 74 be b0 ed 87 3c a9 c0 fe bd
       -0.16314407 -0.23850082 0.01659283 -0.12439091
000260 bd cf 26 be ce 20 7b bd 94 ad a5 bc 35 35 06 be
       -0.16290183 -0.061310582 -0.02022437 -0.13106234
000270 cf 15 86 be 32 fa 8a be ab 59 8f be 16 97 cf bd
       -0.26188514 -0.2714401 -0.279981 -0.10136239
000280 87 b8 10 be f9 57 84 be 11 b3 9d be fe 36 8c be
       -0.14132892 -0.25848368 -0.3080068 -0.27385706
000290 e2 50 1c be 91 71 02 be d7 26 68 be 4b 5d 9f be
       -0.1526523 -0.12738635 -0.22671066 -0.31125864
0002a0 88 36 0b be 78 a0 ac bc f5 22 9f 3d ae b4 43 bd
       -0.13595021 -0.021072611 0.077703394 -0.04777973
0002b0 e3 bd 23 be 5c 4d 30 3d 74 01 f0 3d dd c0 85 be
       -0.15990405 0.043042526 0.11719027 -0.26123706
0002c0 1b 46 60 be fc 0d 12 be d7 9e 9f bd 5d 0c 0e be
       -0.21901743 -0.14263147 -0.07793968 -0.13871904
0002d0 c0 24 fb bd 48 c1 de bd e6 c0 0a be d2 a6 0e bd
       -0.12262869 -0.10876709 -0.13550147 -0.03482706
0002e0 3f c8 79 bd 18 e5 48 bd 5e 26 b1 bd 09 bf 34 3d
       -0.060981985 -0.049046606 -0.08649896 0.044127498
0002f0 a0 f6 89 3d 14 23 81 bd 98 81 35 3d 8d b3 6f 3d
       0.06736493 -0.06305519 0.044313043 0.058520842
000300 6e fd e3 3d 2d ad 3d 3e d5 5b 72 bd fb de 5e 3e
       0.11132322 0.18523093 -0.05916961 0.21764748
000310 47 83 3f 3e eb ec 40 3e 7e 29 76 3e df 53 df 3d
       0.18702422 0.18840377 0.24039266 0.10904669
000320 6a 1f 1d 3e 5f ce 08 3e 35 7f 91 3d bb c4 05 3d
       0.15344015 0.13359974 0.07104341 0.03265832
000330 7f 0a 15 3d 2a 9e 8f 3d 3b db d5 3c 29 7a 1e 3d
       0.036386963 0.07012589 0.026105514 0.03869072
000340 dc a4 23 3d d0 a6 ae 3d d4 84 ad 3d b9 c4 1c 3c
       0.039952144 0.08527911 0.084726006 0.009568387
000350 69 3b 10 3d 21 49 3b 3e 5c 68 4b 3e d8 e6 8b 3d
       0.035212908 0.18289615 0.19864029 0.06831139
000360 2b 53 0f 3e a0 f4 61 3e 21 db 53 3e 7c 6e 4c 3e
       0.1399657 0.22065973 0.2068906 0.19964021
000370 b4 58 39 3e 06 dc 7d 3e b2 52 ea 3d e4 1c f2 3d
       0.18100244 0.24790964 0.11441554 0.11821917
000380 46 c3 59 3d c4 4e fa 3c a9 1f 43 3d 80 4f 58 3c
       0.053164743 0.030555137 0.047637615 0.013202548
000390 e1 40 59 bc 91 47 fa 3d 37 90 f9 3b 29 28 89 3c
       -0.013260097 0.122206815 0.0076160687 0.016742783
0003a0 25 c1 1a 3d a8 83 65 3c 5e a6 b9 3c 3a a0 88 3c
       0.037781853 0.01400844 0.022662338 0.016677964
0003b0 2f 74 80 3b 35 50 27 3d e8 c3 7d bd f5 b4 8d 3d
       0.0039201 0.040847976 -0.06195441 0.069192804
0003c0 d7 68 7c 3c 23 7f 25 bd bf 19 84 bc 0d 92 70 3d
       0.015405855 -0.04040445 -0.016125558 0.058733035
0003d0 93 55 94 3d be 22 6d 3b f4 f4 94 bd 9e fd e9 3c
       0.072428845 0.0036184038 -0.072732836 0.028563317
0003e0 fc 3e 67 3d ba 9d 0c 3e 3b e0 4b 3d 56 e4 57 bc
       0.05645655 0.13732043 0.04977439 -0.013176998
0003f0 ef a6 5f 3d 30 5a 31 3d 78 28 a1 3b 2a bc 2f bc
       0.05460256 0.0432989 0.0049181543 -0.010726014

conv2.bias f4 [16]
000000 10 b5 a7 bc 78 71 49 bc fc 8d cc 3d 57 33 fa bc
       -0.02047208 -0.012295119 0.09988019 -0.030542059
000010 c8 87 9e bc 90 a2 46 3d 08 43 54 be ce 79 2b 3e
       -0.019351855 0.048494875 -0.20728695 0.16745684
000020 e1 9a fe bc c1 98 3b 3d 05 d3 c4 bd df c5 94 3c
       -0.031079711 0.045799974 -0.09610561 0.018160759
000030 85 41 bd 3c 1e ec 04 bd 46 1e ab bd f5 af f0 3c
       0.023102531 -0.03245174 -0.083553836 0.029380778

bn2.weight f4 [16]
000000 85 c1 7f 3f 1b da 3e 3f 08 f0 63 3f 65 ee 7a 3f
       0.9990466 0.7455155 0.89038134 0.9802001
000010 22 ac 7e 3f 6e 05 84 3f 14 67 8f 3f fc e8 63 3f
       0.99481404 1.0314157 1.1203332 0.8902738
000020 d8 23 98 3f e0 f3 77 3f 03 a3 77 3f 73 93 60 3f
       1.1885939 0.968565 0.9673311 0.8772499
000030 d4 ad 6c 3f 7a a9 5b 3f ed a1 60 3f 09 cb 8a 3f
       0.9245274 0.85805476 0.8774708 1.0843211

bn2.bias f4 [16]
000000 f8 31 25 be 24 8b 1d be 97 fe cc be 25 a6 d8 be
       -0.16132343 -0.15385109 -0.40037987 -0.42314258
000010 84 51 e5 bd 93 db 47 be 53 85 df be 16 3c c6 be
       -0.111971885 -0.19517355 -0.43656406 -0.38717717
000020 0a c1 f1 bd 92 cc ce be 50 22 a2 be 6d 7b 3b bd
       -0.118043974 -0.4039045 -0.31666803 -0.045772005
000030 a1 7d 91 be 80 6b a5 be 37 12 e3 be de db ca be
       -0.2841616 -0.32308578 -0.44349834 -0.3962087

bn2.running_mean f4 [16]
000000 ec 7f 3f c0 59 6e 13 40 0b cc 50 40 b5 42 b8 be
       -2.9921827 2.30361 3.2624538 -0.35988393
000010 6a 96 12 c0 9f 84 af bf 1c 64 0c bf 45 37 58 3f
       -2.2904305 -1.3712348 -0.54840255 0.84459335
000020 3c f3 70 3e 49 0a aa bf 79 84 c4 bf 1a 07 8e be
       0.23530287 -1.3284389 -1.5352927 -0.27739793
000030 f8 8b 94 bf 57 b7 80 be 72 a4 96 bf 90 eb 11 c0
       -1.1605215 -0.25139877 -1.1768935 -2.2800026

bn2.running_var f4 [16]
000000 be c9 0a 41 c1 a2 64 40 10 7c b4 40 02 22 d7 3f
       8.674253 3.5724337 5.6401443 1.6807253
000010 c3 45 38 41 dc 44 7e 40 de e3 1e 40 7b bd f7 3f
       11.517032 3.9729528 2.482658 1.93547
000020 bc 60 99 40 4d 28 69 40 e9 98 59 40 05 59 d0 3f
       4.7930584 3.6430848 3.399958 1.6277167
000030 06 94 56 40 10 be 85 40 df b9 e3 40 11 b3 ae 40
       3.3527846 4.179451 7.1164393 5.4593587

conv3.weight f4 [32, 16, 5, 5]
000000 fc a3 f9 bc c2 9f 4d 3c 58 67 4a 3b 6a 84 36 bd
       -0.030473702 0.012550296 0.0030884352 -0.044559874
000010 58 05 b4 bd bc b2 6a bc 2d 8a 2a bc dd 03 64 bc
       -0.08790082 -0.01432484 -0.01040892 -0.013916937
000020 b2 8f 53 bd 65 be 9a bc 61 88 91 3c b3 15 86 3d
       -0.05165071 -0.018889615 0.017765226 0.065471075
000030 6e d1 f7 3d 39 fb 16 3d 0e f5 0d 3e 6c 7b bc 3c
       0.121004924 0.03686068 0.13863012 0.02300807
000040 67 7a 34 3e 96 a4 ee 3d 4e b9 3a 3e ea 28 b2 3d
       0.17624818 0.11652486 0.1823475 0.0869921
000050 61 73 d6 bd c5 ce 74 bd f0 0c 0e 3d bd cd 97 bb
       -0.104712255 -0.059767503 0.034680307 -0.00463268
000060 f7 86 b9 3c 75 8c 26 3d 74 61 11 bc 17 e2 b8 3d
       0.022647364 0.040661294 -0.008873332 0.09027498
000070 eb e9 a1 3d 32 c0 f4 3d b8 ce 35 3d 9a 8f 1e 3d
       0.079059444 0.11950721 0.044386595 0.038711168
000080 ba b3 18 bc 15 df 33 3c 1e 04 90 3d 1c d4 d0 bc
       -0.009320194 0.01097848 0.07032035 -0.025491767
000090 b2 1b a0 3c 0a 78 9e 3d f8 a6 5e 3c a9 16 5d 3b
       0.019544456 0.077377394 0.013589613 0.003373543
0000a0 d9 85 0a 3d 0a fc 14 3d 90 47 6f bc 9a a3 a8 3b
       0.033819053 0.036373176 -0.014604464 0.005146456
0000b0 69 d5 24 3d 39 c5 9b 3d 79 65 23 3d 5a 16 4f 3d
       0.040242586 0.076059766 0.039891694 0.050558425
0000c0 f3 fb 36 3d 4c 0f 9f 3d 1b 67 da bd 04 b4 17 be
       0.04467387 0.077665895 -0.10664197 -0.14814764
0000d0 e8 1d 26 be 49 e5 af bd 2c 16 9d bd ce be cf bd
       -0.16222346 -0.085886545 -0.076702446 -0.10143815
0000e0 20 d7 dc bd c3 e1 74 bd e7 8c 4f bd 7b 06 ce bd
       -0.10783219 -0.059785616 -0.050671484 -0.1005983
0000f0 7e 61 dd bd fb 66 15 be 15 8c 85 bd bb 78 9e bc
       -0.10809611 -0.14590065 -0.06520859 -0.019344678
000100 7a 6c 02 be b0 e7 20 be fa 17 0c be d1 ad e6 bd
       -0.12736693 -0.15713382 -0.13681021 -0.112636216
000110 c9 3c 1f bd 53 38 69 bd e4 74 14 be c2 d4 b0 bd
       -0.03887633 -0.05693848 -0.14497715 -0.0863433
000120 6e 09 2b bd 61 b0 ec 3b f7 b8 a7 bd b7 93 fa 3d
       -0.04175704 0.0072231744 -0.08189576 0.122352056
000130 05 09 07 3e 88 d0 6f 3d 61 d7 d0 3d d0 e6 ca 3d
       0.13187034 0.05854848 0.1019733 0.09907305
000140 1f de 37 3d 73 d5 a9 3c ab 9f 6e 3b 6b a6 a4 3c
       0.044889566 0.020731663 0.0036411087 0.020098886
000150 0d e9 40 bc ef 05 16 3b fe 4f 82 bd 81 07 15 be
       -0.011774314 0.002289172 -0.063629135 -0.14553644
000160 95 0a 26 be 98 65 d8 bd 5a 23 0a 3d 02 a4 12 bd
       -0.16214974 -0.105662525 0.03372512 -0.03580094
000170 4d dd ea bd 0c b5 ba bd de 9b 80 bd e4 5e d4 3d
       -0.11467991 -0.09116563 -0.06279729 0.103696615
000180 07 0d 81 3d 56 1e 42 bc 3a a1 4d bc 26 1e 65 3c
       0.06301313 -0.011848053 -0.012550646 0.013984239
000190 c3 41 a2 3b 7c ad 5f 3c 04 22 f0 bc ef e9 74 3d
       0.004951687 0.013652202 -0.029313095 0.05979341
0001a0 31 80 ce 3c bb 5d ce 3c bd 46 28 3d 61 63 3f bd
       0.02520761 0.025191179 0.041083086 -0.046725634
0001b0 fe 0a 5c bc 4c a2 c4 3d ba 70 c2 bb 1f 38 ff 3b
       -0.013430355 0.09601268 -0.005933848 0.0077886726
0001c0 c7 27 f9 3c 63 63 43 3d 47 56 b1 3d 90 76 19 3d
       0.030414475 0.047702204 0.08659034 0.037466586
0001d0 ad 87 b9 3d 28 24 c1 3d 12 3a 06 3e 26 c7 0b 3e
       0.09059081 0.094307244 0.1310809 0.13650188
0001e0 93 52 b5 3d 09 e0 ac 3d a2 a3 b2 3d e0 7b 3b 3e
       0.088536404 0.08441169 0.08722617 0.18308973
0001f0 6f 6d 3d 3e 2d 23 f3 bd e6 15 aa bd 0a 92 bb bd
       0.18498777 -0.118719436 -0.08304958 -0.09158714
000200 6f f5 79 bb 76 c6 cf bc 71 7c ab bd ae 7e a5 bd
       -0.0038140675 -0.025363188 -0.08373345 -0.08080803
000210 78 53 76 bd 0c c8 af bd a5 77 d3 bc 2a 84 a9 bd
       -0.060138196 -0.08583078 -0.025813887 -0.082771614
000220 ee 79 21 bd ce 8b 96 bd 95 25 5f bd 2c 35 98 3b
       -0.03942292 -0.073508844 -0.0544792 0.0046450105
000230 53 bb a1 bd e3 7a be bd a5 be 7d bd 05 45 ea bb
       -0.078970574 -0.093007825 -0.06194939 -0.007149341
000240 b9 f4 87 3d 69 42 82 bd 2f db 16 3c 13 9b 2e bc
       0.06638474 -0.06360323 0.009207531 -0.01065709
000250 2f fe 36 3d d5 61 9f 3d 48 67 1c 3e de 59 ca 3d
       0.044676002 0.07782332 0.15273774 0.09880422
000260 93 3e 91 3d cc d8 1d 3e ec bf 58 3e 19 30 f0 bc
       0.07092013 0.15414733 0.21166962 -0.02931981
000270 ec 7f 7f bd f1 01 8d bd 6f 84 25 3c d3 fc af 3d
       -0.062377855 -0.06885136 0.010102375 0.08593144
000280 ed 08 b8 3c 17 16 9f 3c e6 66 82 3c aa 1e 8c 3d
       0.022465194 0.019419713 0.015918206 0.06841786
000290 9f 38 ea 3d 97 a9 71 bc b4 62 00 bd 51 0c a8 bc
       0.11436581 -0.014749906 -0.03134413 -0.020513685
0002a0 58 04 2a 3d 05 70 bc 3d 7a 29 0e 3e 00 25 7f 3d
       0.04150805 0.092010535 0.1388301 0.062291145
0002b0 5f 50 9d 3d ef 6f 70 3d 1f 19 53 3e 0a bc d3 bc
       0.07681345 0.0587005 0.20615052 -0.0258465
0002c0 2e 12 03 3d 46 57 fa 3c b7 c2 e4 3c 96 14 23 3e
       0.03199976 0.030559193 0.027924879 0.15925822
0002d0 a6 9c 8b bd 29 fb 2d bc 52 a3 bc bc cc 67 55 bc
       -0.06816988 -0.010618963 -0.023027096 -0.013025235
0002e0 f5 33 90 3d 61 b6 fd bd ca 4c 20 be 55 26 a6 bd
       0.0704116 -0.12388302 -0.15654293 -0.0811278
0002f0 2c fa a0 bd 5b 6d ee 3c 44 db 64 be 62 83 25 be
       -0.078602165 0.02910488 -0.22349268 -0.161634
000300 2c 49 16 be 09 77 d3 bd fa 25 b9 bc c5 94 4d be
       -0.1467635 -0.103254385 -0.022601116 -0.20076282
000310 62 05 41 be 8d 20 0b be c5 2c b2 bd d7 cb 5e 3d
       -0.1884971 -0.13586636 -0.08699945 0.054393616
000320 b8 8d ab 3c 1a e5 b4 3d c3 9a 08 3e 73 a1 df 3d
       0.0209416 0.0883276 0.13340287 0.10919466
000330 b2 00 2f 3e 44 9f 01 3d 14 e6 e2 3d 56 57 1b 3e
       0.17090109 0.03164603 0.1107904 0.15170035
000340 63 4f 9a 3d 30 b0 1b 3e ed 7e 9e 3d e3 3b db 3d
       0.07534673 0.15203929 0.07739053 0.10704782
000350 23 ca 37 3e 9a c6 10 3e 3c cf 10 3e 49 8a ff 3c
       0.17948203 0.1413826 0.14141554 0.03119387
000360 18 8a d3 3d 27 9d a1 3d d5 2c 91 3d 3f dd 1a 3e
       0.10329074 0.078913026 0.07088629 0.15123461
000370 96 d1 b1 3d f9 df e9 3d cd 65 07 3e 5a b5 6c 3d
       0.086825535 0.114196725 0.13222428 0.057790138
000380 ce 74 49 3e 18 b8 a4 3d b3 22 16 3d bd ae 92 3d
       0.19673464 0.080429256 0.036654186 0.07162235
000390 2b f0 fc 3d 78 06 cc 3d ae 42 06 bc 7b f4 8f bc
       0.12350496 0.09962171 -0.008194609 -0.017572632
0003a0 d6 9e 6f 3d be da d9 3d 98 72 2d 3e ae 7a 16 bc
       0.058501087 0.10637425 0.16938245 -0.009184523
0003b0 0e 77 96 bd 9b 44 8a bd 3f 08 e8 bc d4 44 8c 3d
       -0.07346927 -0.06751367 -0.028324245 0.068490654
0003c0 a4 16 bd bc 85 1b 8f bc f8 72 de 3c b7 1c 9f 3b
       -0.023082085 -0.017469177 0.02715443 0.004855718
0003d0 ac 19 af 3d 8c de 7e 3d dd a3 7d 3d 96 2f fb 3c
       0.085498184 0.062223956 0.06192385 0.03066234
0003e0 b7 20 2c 3d 85 b9 16 3e 61 c9 05 be d7 14 cf bd
       0.042023387 0.14719208 -0.13065101 -0.10111397
0003f0 b6 00 26 be a4 47 69 be 4d ee f2 bd 5a 38 a2 bd
       -0.16211209 -0.22781235 -0.118618585 -0.079209045

conv3.bias f4 [32]
000000 61 3f cb 3c 7e ba c6 bc c8 50 aa bc 3b 31 cc bc
       0.024810495 -0.024258848 -0.020790473 -0.024925819
000010 a2 99 8d bc dd 1f 4f bd 5a 53 0f 3b 40 37 04 3d
       -0.017285172 -0.050567497 0.002186975 0.032279253
000020 6a 80 b3 bc bc 60 10 bd 16 ec df bc 5a f9 06 bd
       -0.021911819 -0.035248503 -0.027334254 -0.032952644
000030 8b e8 4e bd 83 e8 3d 3d bd 95 29 3c 81 ad 46 bd
       -0.05051474 0.04636432 0.010350642 -0.04850531
000040 ab 0c 6d 3a c4 5a 55 3d 4f f5 d5 3a 55 2f 1b bd
       0.000904272 0.052088514 0.0016323718 -0.037886936
000050 e6 eb 25 bd 28 1e 82 3b 40 60 5b bc 5c e0 da bb
       -0.040508173 0.00397088 -0.013389647 -0.0066795778
000060 e7 3b d3 bc 16 ce 93 bc 15 33 df 3c e8 f8 ff bd
       -0.0257854 -0.018042605 0.027246037 -0.12498647
000070 c2 ed c7 bc db 69 47 3b 20 3a 7f bd a0 73 48 bd
       -0.024405364 0.0030428085 -0.06231129 -0.048938394

bn3.weight f4 [32]
000000 3b b4 25 3f d5 fb 73 3f 59 1c 6b 3f 80 45 69 3f
       0.64728135 0.9530614 0.9184013 0.91121674
000010 84 08 66 3f 80 ab 6d 3f 2a bf 39 3f e3 ab 7e 3f
       0.89856744 0.92839813 0.7255732 0.9948103
000020 5e ba 81 3f e4 95 6d 3f 8e 31 82 3f d8 47 62 3f
       1.0135 0.9280684 1.0171373 0.88390875
000030 6e a6 5b 3f bf 61 3b 3f 1b 3d 76 3f 9d a7 83 3f
       0.85800827 0.73196024 0.9618699 1.0285527
000040 6f a9 69 3f c8 8f 4c 3f ae ab 60 3f cf ec 84 3f
       0.9127416 0.7990689 0.8776196 1.0384768
000050 0c e7 77 3f b2 cf 4e 3f 53 73 78 3f 93 e0 7a 3f
       0.96836925 0.8078567 0.9705097 0.97998923
000060 25 6b 52 3f 77 bf 6b 3f 14 dd 7c 3f a1 6d 95 3f
       0.8219474 0.9208903 0.9877484 1.1674081
000070 33 cc 62 3f e3 8c 80 3f 31 1a 94 3f 77 85 71 3f
       0.88592833 1.0042995 1.1570493 0.94344276

bn3.bias f4 [32]
000000 bd eb 49 3d 2e ea 4c be 42 1f 84 be 3b dd ea be
       0.049297083 -0.20011207 -0.25805098 -0.4587191
000010 6c 54 83 be 52 8e fa be e7 60 1e be f8 9b 05 bf
       -0.25650346 -0.48936707 -0.15466653 -0.52191114
000020 39 b0 9f be be a2 c1 be e8 9d e2 be f8 a2 fb be
       -0.31189135 -0.37819475 -0.44261098 -0.49147773
000030 7b ee bf be 64 1d 91 be 6f 20 a9 be 91 53 e6 be
       -0.37486634 -0.28342736 -0.33032557 -0.4498563
000040 46 bf e1 be d0 8d a6 be 0c f0 1c bf b7 42 da be
       -0.44091243 -0.3253007 -0.6130378 -0.42629024
000050 c6 19 a7 be 8d a0 c6 be 6a 4c 33 bf ea e7 0b bf
       -0.3263685 -0.38794366 -0.70038474 -0.5465075
000060 19 cc ee be a0 76 76 be d6 00 86 be a8 b2 c8 be
       -0.4664009 -0.2406869 -0.26172513 -0.39198804
000070 ac 03 a1 be df 68 04 bf a8 8a 2b bf ad f9 bc bd
       -0.31448114 -0.5172252 -0.6700845 -0.092273094

bn3.running_mean f4 [32]
000000 02 f8 6a 40 dc 8b 11 c0 77 85 36 bf 65 d2 30 3f
       3.6713872 -2.2741613 -0.712974 0.69071037
000010 09 20 05 c0 c1 f2 05 c0 cd d2 07 40 05 3c 54 c0
       -2.0800803 -2.0929415 2.1222413 -3.3161633
000020 8d df 07 c0 b1 7e 49 be 8a 64 f0 bf c4 23 3c 3f
       -2.1230195 -0.19677235 -1.8780682 0.73492074
000030 c5 e8 6d c0 da 56 d4 be 45 5e f0 bf ca 32 a6 c0
       -3.7173321 -0.41472512 -1.8778769 -5.1937
000040 2b 3b 1c c0 0c 61 07 40 92 c6 7b 3e 94 e0 4e c0
       -2.4411113 2.1152983 0.24587467 -3.2324572
000050 c5 2d b0 3f bd 08 02 c0 1d 06 50 c0 ae ee 44 c0
       1.3763968 -2.0317833 -3.2503731 -3.0770679
000060 54 80 98 3f bd bc da c0 90 44 9c be 92 65 af c0
       1.1914163 -6.8355393 -0.3052106 -5.4811487
000070 0e 69 b1 c0 b5 bf 93 bf 72 1e 92 bf 0b 4e 25 c0
       -5.544074 -1.1542879 -1.1415541 -2.5828884

bn3.running_var f4 [32]
000000 99 4b 4f 41 08 7c 9f 41 73 9c 32 41 e4 92 70 41
       12.955956 19.935562 11.163196 15.035862
000010 e4 e4 0e 41 38 24 d6 40 dd c8 ed 40 4c b0 2b 41
       8.9308815 6.691921 7.4307694 10.730541
000020 f9 a2 12 41 e2 53 bf 40 13 7c 96 41 7d e5 22 41
       9.164788 5.9789896 18.810583 10.181027
000030 27 be 31 41 7f 31 fe 40 7e 79 86 41 47 ed b9 41
       11.108924 7.943542 16.809322 23.240858
000040 b3 d4 85 41 67 4b 1c 41 a1 e7 cd 40 7d 35 61 41
       16.728857 9.768409 6.434525 14.075559
000050 9c ee a3 41 3f aa 29 41 e1 2d 10 41 b5 21 77 41
       20.491508 10.604064 9.011201 15.445729
000060 0f 41 2a 41 55 74 14 42 b8 35 09 41 d3 12 44 42
       10.640883 37.113605 8.575615 49.018383
000070 d6 ae a5 41 14 67 33 41 75 d6 b7 40 6e 75 54 41
       20.71037 11.212666 5.744929 13.278669

conv4.weight f4 [32, 32, 5, 5]
000000 a9 72 ea bd 98 af f7 bd 36 f1 1f be 60 72 02 be
       -0.11447651 -0.12094039 -0.15619358 -0.12738943
000010 78 2c 41 be 4a 52 b2 bd 72 74 a7 bd 3b 14 a5 bd
       -0.1886462 -0.08707102 -0.08176507 -0.08060499
000020 97 10 0b be 6f 79 0d be cf b2 ea bd 88 69 90 bd
       -0.13580547 -0.13815854 -0.11459886 -0.070513785
000030 09 a3 d5 bd fc d3 00 be 0a b9 17 be 68 0e a0 bd
       -0.10431487 -0.12580866 -0.1481668 -0.07815248
000040 5b 7e 83 bd 1c 32 b0 bd c4 86 ee bd 3b 7c a6 bd
       -0.06420585 -0.086033076 -0.11646798 -0.08129164
000050 2a 4f dd bd a9 3c c0 bd 10 63 b5 bd db 9e a2 bd
       -0.10806115 -0.0938657 -0.08856785 -0.079404555
000060 5b b1 10 be a2 f8 1a be 20 39 45 be 3d 6a 2a be
       -0.14130156 -0.15133908 -0.19260073 -0.16642089
000070 aa 6b 53 be 8d e9 9c be 11 c4 b1 bd 6b 7e 97 bd
       -0.2064654 -0.30646935 -0.08679975 -0.07397159
000080 1d 33 dd bd 42 a9 0f be b1 b0 2a be e9 9a 7f bd
       -0.10800765 -0.1402941 -0.16668965 -0.062403593
000090 c5 0b 24 bd 5d 6d 36 bd b3 a3 a8 bd 56 20 2f be
       -0.040050287 -0.04453789 -0.08234348 -0.17102179
0000a0 9b bc 3d bd 60 c9 52 bc 01 c7 dc bb 7f 26 c0 bc
       -0.046322446 -0.012865394 -0.0067375903 -0.023455856
0000b0 b6 95 bd bd 27 0e 8e bd 92 86 7e bd e3 55 b1 bd
       -0.09257071 -0.06936293 -0.062140055 -0.0865896
0000c0 8f ec 4a bd 20 16 0b be ed 0a c2 3c d4 51 69 3c
       -0.049542006 -0.13582659 0.02368685 0.014240701
0000d0 08 42 e1 ba 33 0e 00 bc 68 43 a0 3c 39 b6 a6 3d
       -0.0017185817 -0.007815885 0.019563392 0.08140225
0000e0 7e de a1 3c b2 18 40 3d 2d 66 50 3d 8c f5 00 3d
       0.019759413 0.04689855 0.050878692 0.03148417
0000f0 85 47 88 3d 1b 78 da 3c 14 50 98 bb 28 97 04 bc
       0.06654266 0.026668599 -0.004648218 -0.008092679
000100 b4 18 64 bc 14 86 44 bc 94 cf 9d bb d7 b6 fb bc
       -0.013921905 -0.011994857 -0.004816005 -0.030726833
000110 8a 65 50 bd 48 cc 63 3c 18 50 20 3c 7e 21 6b bd
       -0.050878085 0.013903685 0.009784721 -0.057404988
000120 3b b3 90 bd b6 cd 31 bd 6b 3f 63 bd 8a 76 00 bd
       -0.070654355 -0.043409072 -0.055480402 -0.031363048
000130 08 6e b2 bd 85 8e 81 bd c1 04 b6 bd c9 6c 33 bd
       -0.08712393 -0.063260116 -0.088876255 -0.043804917
000140 2b fe 58 bd 4d 8f db bc 52 c0 9e bc 07 2c 36 bd
       -0.05297677 -0.02680173 -0.019378815 -0.04447558
000150 90 c9 1e bd a2 37 c3 3c 26 3a 07 bd c3 00 74 3c
       -0.038766444 0.023830239 -0.03301444 0.01489276
000160 e9 0a ad 3c 93 87 17 3d 33 6b 06 3d d6 bb 9d 3b
       0.021123366 0.036994528 0.032817077 0.0048136516
000170 f6 ed da 3c a8 a8 51 3d 5e 79 e0 3d 91 fd 94 3d
       0.026724797 0.051186234 0.10960649 0.072749265
000180 d2 dc 82 3d d1 68 a7 3d c1 bd f6 3d 15 57 04 3e
       0.063897744 0.08174289 0.120479114 0.12923844
000190 a0 8f 25 3d df 89 01 3c 07 6c 6b b9 81 fd d0 bb
       0.040420175 0.007906406 -0.0002245159 -0.0063778763
0001a0 4e a6 ee bc d0 cc 73 3c d6 1e 01 3c 7d 88 76 bc
       -0.029132035 0.014880374 0.007880887 -0.01504719
0001b0 c7 96 3e 3d f7 c2 e3 3c 56 be 22 3d 07 e6 31 bc
       0.04653051 0.027802927 0.0397323 -0.010858065
0001c0 77 57 f7 bc 7f b5 9b bc 9a 5f 4f bc 15 58 83 3c
       -0.030193074 -0.019007443 -0.0126570705 0.016033212
0001d0 57 38 d8 3c db 94 1e bd 8f 6a 2a bc 8f 65 02 3d
       0.026394052 -0.03871618 -0.010401382 0.031835135
0001e0 a1 f8 59 3d e1 2c 65 3c 99 c5 59 bd 05 34 26 3c
       0.053215627 0.013987751 -0.05316696 0.010144238
0001f0 8a be f5 bc f8 bf 35 3d 00 59 29 ba 52 00 84 bc
       -0.029998083 0.04437253 -0.00064601004 -0.016113434
000200 15 7c 3b bd 82 70 ef bb 76 ca a9 3c 59 7a 27 bd
       -0.04577263 -0.007307113 0.020726424 -0.040888164
000210 bd 6e 8c bd 02 cc 4a bd e9 75 7d b8 52 50 1f 3d
       -0.06857059 -0.049510963 -6.0429713e-05 0.03889496
000220 d5 73 b3 3c 9d 36 8d bc cf 8b 7b bd 61 52 00 3d
       0.021905819 -0.017237956 -0.06141263 0.031328563
000230 c1 fe 20 3d 93 33 28 3b dc 79 29 bd 6f 5e 39 bd
       0.039305452 0.0025665506 -0.04137598 -0.045256075
000240 7a f3 2e bd 27 8e 46 3d 75 56 73 3d fe 4a 65 bd
       -0.042712666 0.04847541 0.059408624 -0.05597972
000250 af bd de bd ff 0b 6d bd 5a f2 97 3d 42 54 96 3d
       -0.10876023 -0.05787277 0.07419272 0.0734029
000260 2f 05 cc 3d 00 c5 e9 3d 8c f8 45 3e c7 bb 8d 3d
       0.09961926 0.11414528 0.19333094 0.06920581
000270 5b f3 00 3d d7 6c 74 3d db 28 13 3e bf 90 39 3e
       0.03148208 0.05967411 0.14371054 0.18121623
000280 cb 12 45 3d 7e 08 4e 3d c3 df bd 3d 21 b7 be 3d
       0.048113625 0.050301068 0.09271195 0.09312273
000290 02 9b 4c 3e 60 68 bd 3d 46 5a 44 3d fa 9e 96 3d
       0.19981006 0.092484236 0.047937654 0.07354541
0002a0 af 82 f7 3d 3c 5b 6d 3e b0 44 a9 3d 44 95 6d 3d
       0.12085473 0.23179334 0.08265054 0.05800368
0002b0 75 52 c1 3d 84 29 1c 3e 63 43 77 3e 32 42 b1 3b
       0.094395556 0.15250212 0.241468 0.0054095024
0002c0 f6 4e 29 3d d2 d2 5e 3d 3e 38 84 3d 4d ec 95 3d
       0.04133507 0.054400273 0.0645604 0.073204614
0002d0 df e1 55 3d a1 5f 56 3d 37 81 8c 3d 05 56 10 3e
       0.05221736 0.052337293 0.06860583 0.14095314
0002e0 2f 2b ec 3d 50 78 17 3d 9a 29 54 3b 2d ca 9a 3d
       0.11531674 0.036979973 0.003237343 0.07558093
0002f0 14 6e a5 3d 7c 71 ea 3d dd ba cd 3c 6a 5f 90 3d
       0.08077636 0.11447427 0.025113517 0.07049449
000300 93 b9 91 3d 70 db d3 3d aa b1 0c 3e c2 02 58 3b
       0.071154736 0.10344589 0.13739648 0.0032960628
000310 a2 a9 05 3d d7 80 d1 3d 05 94 15 3e 13 db b8 3d
       0.032632478 0.102296524 0.14607246 0.0902616
000320 68 e1 98 3e 54 98 77 3e 4f a0 86 3e d9 ed 6e 3e
       0.2985947 0.24179202 0.2629418 0.23332919
000330 55 d5 90 3e a9 a9 6e 3e 29 36 61 3e 29 3b 2d 3e
       0.2828776 0.23306908 0.21993317 0.16917099
000340 39 c3 61 3e 00 67 4c 3e cb 8c 49 3e 81 a2 17 3e
       0.22047128 0.19961166 0.19682615 0.14808084
000350 34 76 f9 3d 9f 42 18 3e 8c bc 32 3e bf c7 65 3e
       0.121807486 0.14869164 0.17454737 0.22439478
000360 4a 58 0d 3e 0e a2 02 3e 53 78 33 3e 16 ad 2d 3e
       0.13803211 0.12757131 0.17526369 0.16960558
000370 f7 e1 5b 3e 1f 2e 62 3e 5f 32 35 3e c1 f4 35 3e
       0.21472917 0.22087906 0.17694996 0.17769147
000380 4b 11 55 3e ef d2 83 bd 5c c2 4c bd 3a 4a 3d bc
       0.20807378 -0.06436717 -0.049990043 -0.0115533415
000390 3d c0 d2 b9 1e bb ea 3b 27 20 98 bd c9 60 9a bd
       -0.0004019755 0.0071634194 -0.074280076 -0.075379916
0003a0 19 ba 18 bd 22 00 57 bb ff 24 23 bd dc 99 80 bd
       -0.03728685 -0.0032806476 -0.039830204 -0.06279346
0003b0 25 e6 83 bd b6 70 91 bc b9 af 51 bd 54 d6 1f bd
       -0.06440381 -0.01775394 -0.051192973 -0.03902276
0003c0 23 da 57 bd 94 21 78 bd 10 58 b4 bd 9d 06 ad bd
       -0.052698266 -0.060578898 -0.08805859 -0.08448527
0003d0 df 84 c0 bd 05 e7 82 3c 84 86 3a bd 23 28 1e bd
       -0.09400343 0.0159793 -0.04553844 -0.038612496
0003e0 af e0 85 bd 4c 38 81 bd 9e 25 e1 bd 9d f2 a2 bd
       -0.065369956 -0.06309566 -0.10993503 -0.07956431
0003f0 0d e4 84 bd 49 89 16 be 90 bc 39 be 97 c4 86 bd
       -0.0648881 -0.14700808 -0.18138337 -0.06580465

conv4.bias f4 [32]
000000 48 14 e1 3d 22 43 a2 3d 3d f8 ba 3d 7f c8 02 3d
       0.109901965 0.07922961 0.09129379 0.03192949
000010 25 6d aa 3d 1b 48 8c 3c 17 89 7f 3c 2b e1 17 3e
       0.08321599 0.017124226 0.01559665 0.14831989
000020 3d ab be bc 28 25 7e bd df da c7 3d 3c 5f 00 bd
       -0.023275012 -0.062047154 0.09758543 -0.031340823
000030 e1 96 8a ba aa 5d ec 3c d1 bf a6 3c fd 28 a5 3d
       -0.001057353 0.028853256 0.020355137 0.080644585
000040 0c 4b ab 3d fe 6a 26 bd 01 0f af 3d 97 74 ba bd
       0.083639234 -0.04062938 0.08547784 -0.09104269
000050 7b 2d 41 3d 36 c3 25 3e 29 13 74 ba 48 2a 1f bd
       0.047162514 0.16187748 -0.00093107164 -0.038858682
000060 04 2e 29 be 75 97 e9 3c 59 35 3a 3b 62 e1 66 bd
       -0.1652146 0.028514603 0.0028413145 -0.056367286
000070 a6 c9 fc bc 39 8f 77 3d 0d f3 0a be a0 dd 10 3d
       -0.030857872 0.060439322 -0.13569279 0.035367608

bn4.weight f4 [32]
000000 60 17 5f 40 e5 ec 6b 40 8a 25 75 40 f5 03 47 40
       3.4858017 3.686334 3.8304162 3.1096165
000010 01 60 6b 40 47 03 9e 40 4c bf 87 40 58 99 82 40
       3.6777346 4.9379 4.2421017 4.0812187
000020 ab ca 70 40 cd 28 48 40 e8 23 73 40 5f 42 87 40
       3.7623699 3.1274903 3.7990665 4.226852
000030 ee f6 87 40 50 55 8e 40 49 4a 81 40 6f d5 4f 40
       4.248893 4.447914 4.040318 3.247402
000040 28 61 7f 40 4a 04 6f 40 17 e6 56 40 8d 3b 69 40
       3.990305 3.7346368 3.3577936 3.6442597
000050 72 43 5c 40 17 b7 7b 40 b5 26 80 40 68 17 7c 40
       3.4416165 3.93305 4.004725 3.9389286
000060 45 24 7a 40 56 f9 7c 40 d4 1b 5b 40 ea 89 71 40
       3.9084637 3.9527183 3.4235735 3.7740426
000070 6a cc 7a 40 72 42 8f 40 b5 af 98 40 47 55 79 40
       3.9187264 4.476861 4.7714486 3.89583

bn4.bias f4 [32]
000000 de 77 93 3f e9 c2 9a 3f 9d 84 9b 3f b2 76 58 3f
       1.1520956 1.2090732 1.2149845 0.84556115
000010 8a e1 b6 3f 7e 25 db 3f d8 1a 8e 3f d8 ba a1 3f
       1.4287579 1.7120817 1.1101942 1.2635145
000020 c7 69 77 3f e8 1f 55 3f 99 17 b5 3f 83 17 6f 3f
       0.9664578 0.8325181 1.4147826 0.9339525
000030 36 d1 9b 3f ea 96 8a 3f 7a 10 b8 3f a9 19 7b 3f
       1.2173221 1.0827305 1.4380028 0.9808603
000040 09 d5 a2 3f eb 50 ad 3f e5 8a 5a 3f c6 2b 99 3f
       1.2721263 1.3540319 0.85368186 1.1966484
000050 1c a3 bb 3f 4c 08 99 3f 2b 6d 9a 3f c3 e5 a7 3f
       1.4659152 1.1955657 1.2064565 1.3116993
000060 b1 03 ab 3f ae ea b0 3f d0 8e 8e 3f db e4 9f 3f
       1.3360502 1.3821619 1.1137333 1.2491716
000070 63 34 a6 3f 39 d2 7b 3f de 87 a9 3f d0 79 85 3f
       1.2984737 0.9836765 1.3244588 1.0427799

bn4.running_mean f4 [32]
000000 49 40 d3 be b6 59 79 c0 2f e5 e8 bf fd 25 1a c0
       -0.41259983 -3.8961005 -1.8194941 -2.4085686
000010 48 a8 3f be f9 61 bd bf 5a ae 70 3e fc 27 0e 3f
       -0.18716538 -1.4795524 0.2350401 0.5552976
000020 f1 09 2e c0 d5 41 68 3f 02 a1 71 bf e7 a6 b0 c0
       -2.7193568 0.9072545 -0.94386303 -5.520374
000030 d8 28 3c bf e9 bb b5 bf 50 8a 50 3f 7c 39 a8 3f
       -0.7349982 -1.4197971 0.8146105 1.3142543
000040 1b 22 f6 3e 11 82 21 40 09 83 09 3f a3 39 03 3f
       0.48072895 2.5235636 0.5371557 0.5125982
000050 31 a8 20 40 74 36 33 c0 57 0b cd 3e 10 63 44 bf
       2.5102656 -2.8001986 0.40047714 -0.7671366
000060 f2 8e 90 3e 37 c7 c5 bf a5 83 ce bf 3f 36 65 bd
       0.2823406 -1.545142 -1.6133925 -0.055959936
000070 bb aa aa 3f b9 02 de be 1c ad ed bf f9 a3 21 c0
       1.3333353 -0.43361452 -1.8568454 -2.525633

bn4.running_var f4 [32]
000000 9c eb 28 41 52 f9 1e 41 75 e5 30 41 f2 fd c3 40
       10.557522 9.935869 11.05602 6.124749
000010 a8 14 ec 40 f9 05 01 41 dd 43 fe 40 ce 9d f7 40
       7.3775215 8.063958 7.945784 7.7380133
000020 c9 aa ff 40 75 f1 56 41 2b 2c 28 41 71 c3 da 40
       7.989598 13.433949 10.510783 6.8363576
000030 30 75 b2 40 72 b5 e0 40 e7 ad 35 41 80 c5 e7 40
       5.576805 7.022149 11.354957 7.242859
000040 88 bf 06 41 46 de 0f 41 54 0f 10 41 f7 42 1f 41
       8.421761 8.991766 9.003742 9.953849
000050 16 71 4d 41 ba 44 fe 40 61 24 06 41 8d 01 e0 40
       12.840109 7.9458895 8.383882 7.0001893
000060 05 d7 ce 40 3b 41 f4 40 83 94 3a 41 5a 94 c4 40
       6.4637475 7.6329627 11.661258 6.1431093
000070 75 32 07 41 d4 ae f0 40 e7 98 04 41 fb 6e d1 40
       8.449819 7.5213413 8.28733 6.5447974

fc1.weight f4 [72, 32]
000000 70 a3 af 3d 1d 15 2e bf 48 67 cd be 89 c5 0f bf
       0.08576095 -0.68000966 -0.4011786 -0.5616079
000010 0c 27 9d be 77 ae 82 be 0b 04 bd 3e 6e 33 93 3e
       -0.30693853 -0.2552373 0.36917147 0.28750175
000020 aa 6b b6 3e c2 e9 60 bf 36 28 2e 3e 59 01 f1 be
       0.35629016 -0.87856686 0.17007527 -0.4707134
000030 f9 16 93 3d 15 5d 17 bf a2 80 27 bf e4 11 f3 bc
       0.07182116 -0.59126407 -0.65430653 -0.029671617
000040 f2 58 04 3e 41 99 98 3d ca bd 60 be ef e0 c1 3e
       0.12924555 0.07451106 -0.21947399 0.37866923
000050 01 5d 73 3e 43 0a 77 bc fa 47 f9 be c1 81 48 bf
       0.23765947 -0.01507813 -0.48687726 -0.7832299
000060 01 53 24 bf 23 e7 f8 3d 37 80 4a 3e f2 29 5c 3e
       -0.64189154 0.12153461 0.19775473 0.21500376
000070 b2 44 ed 3d 8d 3f 00 3e 49 eb da bf b1 d0 58 be
       0.11585368 0.12524243 -1.7103053 -0.2117336
000080 8c f3 13 be a8 a2 75 be a9 86 ba be 43 21 95 be
       -0.14448375 -0.2398783 -0.36430863 -0.2912694
000090 b0 d0 13 c0 a1 a4 4e 3d 3e a6 7d bf 88 87 c7 be
       -2.3096123 0.05044997 -0.9908179 -0.3897059
0000a0 55 fd c6 3d 53 99 cc bd 4f 28 76 3d e7 74 00 c0
       0.09716288 -0.09990182 0.060097035 -2.0071352
0000b0 a3 95 7d 3e 8b 76 dd be 9b 61 bb 3e d8 66 79 3d
       0.24764113 -0.43254504 0.36597905 0.060889095
0000c0 a2 0f 14 3f 9d c0 54 be 5d ba b6 3d f7 4f 24 bf
       0.57836354 -0.20776601 0.08922265 -0.64184517
0000d0 0d a9 35 bd fa ad 80 be 7b 85 23 3d bb 90 f0 3d
       -0.044350673 -0.25132734 0.03992222 0.11746355
0000e0 62 35 da be 2e 07 c4 bf a1 9d 83 3e 3a 56 80 be
       -0.42618853 -1.5314691 0.257062 -0.25065786
0000f0 50 13 06 3e 30 3b 15 3f 6a 43 de 3e 3a 86 11 be
       0.13093305 0.5829344 0.43410808 -0.1421136
000100 63 52 47 bf 42 a9 ab 3e 01 85 e5 be 7c 02 d5 be
       -0.7786009 0.3352757 -0.44828036 -0.41603458
000110 f3 3c ad bd 89 59 7f 3e 60 a5 05 bf 2a 72 00 3f
       -0.08458891 0.24936499 -0.5220547 0.501742
000120 08 2c 87 bd c8 b7 a9 bf 1a 2a a3 be a7 66 49 3c
       -0.06600195 -1.325921 -0.31868058 0.012292541
000130 30 c0 33 be c3 a8 05 bf 48 22 fd be 52 0a b3 be
       -0.17553782 -0.52210635 -0.49440217 -0.3496881
000140 42 8c f6 bd d8 ce ba bd 89 a9 99 be c5 c5 b6 3e
       -0.12038471 -0.091214836 -0.30012158 0.3569776
000150 43 06 4d 3e f5 28 c7 bd 0a 95 d5 3e 5f 6b 53 3e
       0.2002192 -0.09724609 0.4171527 0.20646428
000160 a6 30 9e 3e b7 87 c8 bd 96 51 e1 be 42 c2 79 bf
       0.3089649 -0.097915106 -0.44007558 -0.9756204
000170 1f ba 73 bf f0 7a d5 be 13 74 be be e4 b6 2f bf
       -0.95205873 -0.41695356 -0.37197933 -0.68638444
000180 d0 db 88 3e 18 45 ee 3e e1 48 4f bf 8c 15 26 3e
       0.26730204 0.4653709 -0.8097058 0.16219157
000190 d4 26 70 be 32 59 aa 3e 79 81 78 be b3 21 81 bf
       -0.23452312 0.33271176 -0.2426814 -1.0088409
0001a0 a6 c7 31 3e 92 e7 cd bd 33 d8 87 3d 20 ee f4 be
       0.17361316 -0.10053934 0.066330336 -0.47837925
0001b0 b9 76 56 3d da 33 3b bf c3 9e 14 bf 53 9c 21 3d
       0.052359316 -0.73125994 -0.5805475 0.039455723
0001c0 09 04 4c be eb ba b1 be dc 8b 2f 3e 50 a2 85 3e
       -0.19923414 -0.3471292 0.17143196 0.26100397
0001d0 6e 62 a2 3e b9 ee 90 3e a9 97 db be e7 4c 43 3e
       0.3171572 0.2830713 -0.42889145 0.19072305
0001e0 fe 5a 31 be 4d 9f 34 be da 21 bf bd 01 91 c9 be
       -0.17319867 -0.17638893 -0.093326285 -0.39368442
0001f0 04 c7 b3 3c 77 96 16 3d 6d e8 f8 bf a6 a8 48 bf
       0.021945484 0.03676459 -1.9445931 -0.7838234
000200 39 90 33 3f 06 4f 5a be 95 88 9d 3e e5 4a b9 3e
       0.7014194 -0.21319208 0.30768266 0.36189952
000210 af c3 47 3e fd a0 21 be 7a 7f 05 be 3c da 08 bf
       0.19508241 -0.15784068 -0.1303691 -0.53458
000220 8b 6a ca 3e a2 9f e8 be 35 74 72 3e 4f 07 50 bf
       0.3953441 -0.4543429 0.23677142 -0.8126115
000230 b4 c3 53 be 40 a1 3f bf 1e c3 0f 3e a6 2a a1 bd
       -0.20680124 -0.7485542 0.14039275 -0.07869463
000240 c2 a5 34 be 27 ac 27 3e 7a 3d a4 be 28 73 12 bf
       -0.17641357 0.16374265 -0.32078153 -0.57206964
000250 b3 95 6e 3d da d8 bc 3e 43 21 2f be b5 b1 06 bf
       0.058248233 0.36884195 -0.17102532 -0.5261491
000260 fa ae 3d bf 9b 95 f2 bd 60 27 5d be 57 48 56 bf
       -0.7409512 -0.11844941 -0.21597052 -0.8370413
000270 ea 26 68 3d 3f f0 3e be 4f 76 2a bf 07 e5 b5 3e
       0.056677736 -0.18646334 -0.66586775 0.35526296
000280 c3 b7 7f be 1f f4 1e be 69 8c da bd 03 25 85 3d
       -0.24972443 -0.15522812 -0.10671312 0.065012
000290 d8 f3 83 3d 97 72 aa be 86 c4 3b bf 60 ad 53 3e
       0.06442994 -0.3329055 -0.73346746 0.20671606
0002a0 5a af 15 3e 0b 0a 09 bf d4 23 ef bd 2a 46 e7 be
       0.14617673 -0.5353095 -0.116767555 -0.45170718
0002b0 ee cd 9f 3e 1e 70 88 be 56 2f 15 bf e3 27 97 3e
       0.312118 -0.2664804 -0.58275354 0.2952262
0002c0 ae 4b ff be fc 02 c3 bd e0 7b 94 3e 3b 75 11 3e
       -0.49862427 -0.095220536 0.2900076 0.14204876
0002d0 49 c8 53 3e f8 87 c8 3e 75 f5 c1 bc 8b e1 8e bf
       0.20681871 0.39166236 -0.023676613 -1.116258
0002e0 4b 84 81 3e 0d 96 1c bf af a1 28 be 75 03 07 bf
       0.25296244 -0.6116646 -0.16467927 -0.5273965
0002f0 60 57 8a 3e 86 2e 53 3f 72 e5 b5 bf a5 b5 d6 be
       0.27019787 0.82492864 -1.4210646 -0.4193546
000300 1c f3 cb be 4f 6b 3c bf 76 fa c6 3d 85 89 d4 3d
       -0.39833915 -0.7360124 0.097157404 0.10377792
000310 59 68 86 be f2 ad ae be 0a 1e 22 bd 6a 83 7b 3e
       -0.26251486 -0.34117085 -0.03957943 0.24561849
000320 cc ed dd 3e 41 26 9c bc fe 99 05 bd d2 1e 07 3f
       0.43345487 -0.01906121 -0.03261756 0.52781403
000330 d7 18 2c 3e 22 d3 e0 be c9 e5 40 3e 9f 55 0c 3f
       0.1680635 -0.43911082 0.18837656 0.5481815
000340 e7 ef a1 be bc cd 9a bc f9 b0 fb be 7a ee 8a bf
       -0.31628343 -0.01889693 -0.49158457 -1.0854027
000350 95 0b a3 3b 46 db 8d 3e 15 a4 0d bf 80 ba 0c bf
       0.004975746 0.27706355 -0.55328494 -0.54972076
000360 2f 9c 4a be 5b 86 66 bf 50 0a 2b be 4e 64 8a be
       -0.19786142 -0.9004876 -0.16703153 -0.2702965
000370 53 5b c4 bc 48 26 03 3d cc ae 8c bf 1c f5 b5 3d
       -0.023969328 0.03201893 -1.0990844 0.088846415
000380 6b ce 4e be be 95 93 be 25 a2 57 bd f9 01 8d bf
       -0.2019593 -0.28825182 -0.052644867 -1.1016227
000390 06 a7 81 bf 3f 2e 7b bf bd 07 e1 bd 2e 96 10 3f
       -1.0129097 -0.9811744 -0.10987804 0.56479156
0003a0 48 a0 a9 3e 16 9c 31 3e ae e6 77 bf d1 fc 00 bf
       0.33130097 0.17344698 -0.96836364 -0.5038577
0003b0 8f eb 3d bf df 8f 95 3e ee 65 1d 3f 8e 5e 9f 3e
       -0.7418756 0.29211327 0.6148366 0.31126827
0003c0 0b e7 df 3d ca 66 fe be 56 d2 0c 3d f3 8a 93 be
       0.1093274 -0.49687797 0.03438028 -0.28816947
0003d0 52 ba 0f 3e 86 33 d9 be c2 d0 f9 3e e6 5c 53 be
       0.1403592 -0.42422122 0.48792082 -0.20640907
0003e0 7e eb cb be c5 10 82 bf f4 40 81 be e0 c9 c3 3e
       -0.39828104 -1.0161368 -0.25244868 0.38239956
0003f0 60 d0 c2 be 6a 63 f5 3e 0b 4e 80 be 4c 35 40 be
       -0.38049603 0.4792741 -0.25059542 -0.18770331

fc1.bias f4 [72]
000000 f5 3b 11 be 77 11 36 be d2 04 85 3d 00 49 13 be
       -0.14183028 -0.177801 0.0649506 -0.14383316
000010 2d 3a cb bd 62 e4 b0 bd 33 f0 98 3d 75 30 9d bd
       -0.099232055 -0.086373106 0.07467689 -0.07675258
000020 8f e5 70 3d d7 0f f2 3d b8 8d 36 be bd 2d 2e bd
       0.058812674 0.118194275 -0.17827499 -0.04252409
000030 3c cb 10 be b0 54 30 3e 86 4a 4f 3e 9a 24 37 3e
       -0.14140028 0.17219806 0.20243272 0.17885056
000040 62 dd 92 bb 25 d1 21 bc 20 62 2b be 85 94 d6 3d
       -0.0044819573 -0.009876524 -0.1673665 0.104775466
000050 2c de 64 3d 34 08 dc bd 7d cc 03 3e 7b ea 3c bd
       0.055875942 -0.10743752 0.12870975 -0.046122056
000060 68 72 cb 3d 0c 4a 8e bd f5 2b 92 bd 01 7a 5d be
       0.09933931 -0.06947717 -0.071372904 -0.21628572
000070 ee 83 c7 bc 45 71 b5 3d 9f 87 f2 bd ec ec 7a 3d
       -0.024354901 0.08859495 -0.11842274 0.061261103
000080 bf 40 2a be 6c 30 ec 3b 44 3c 0e 3d e7 62 49 3e
       -0.16626261 0.007207921 0.034725443 0.19666635
000090 e4 64 6f 3e e3 28 10 bd a8 76 d2 bc ab 49 73 be
       0.2337833 -0.035195243 -0.025691345 -0.23758571
0000a0 a3 f4 42 be c8 3c d4 39 04 b9 09 3d 7e 12 33 3d
       -0.19038634 0.00040481077 0.03362371 0.043718807
0000b0 f1 b0 02 3d 87 95 37 3b 77 d4 4d 3e 6f 4b 31 be
       0.031907026 0.002801271 0.2010058 -0.17313932
0000c0 fb 06 26 3e a6 b0 74 3d cf fa 2f bd 90 48 ae 3d
       0.162136 0.059738778 -0.0429638 0.08509934
0000d0 c5 60 31 3e 2f 2a bd 3c 68 36 c5 bb 5b 01 2b be
       0.17322071 0.023091404 -0.0060184486 -0.16699736
0000e0 f3 0f 8a 3d d7 06 1e bc ab 87 95 3d c6 86 cb bc
       0.06741323 -0.009645185 0.07301267 -0.024844538
0000f0 46 d8 58 be f5 f7 d1 3d 4e e1 38 3e ec 35 3f bc
       -0.21176252 0.10252372 0.18054697 -0.011670571
000100 30 60 80 bd d5 dd f5 bc ad ca f8 bd 59 33 6c bd
       -0.06268346 -0.030013004 -0.12148032 -0.057666156
000110 ab f4 02 be 14 9a b4 bd 6d 18 a9 bc 41 4a d9 bd
       -0.12788646 -0.088184506 -0.02064153 -0.10609866
