notebooks/cnn_model_1(2).pt (torch, 185028 bytes, 26 tensors)

conv1.weight f4 [8, 3, 5, 5]
-0.039269164 -0.16308866 -0.120477594 0.01944759 0.09676957 -0.033889294 -0.076101206 -0.22233473
-0.094514675 -0.1105486 -0.057831038 -0.21126147 -0.14601354 -0.19871977 -0.11282326 -0.110860735
-0.20912908 -0.07464567 -0.17571439 0.11423643 -0.06496843 -0.1905486 -0.0031925123 0.026400195
0.24361719 0.07473659 0.05393175 -0.019248055 0.0059165265 0.16117252 0.11644224 0.11624565
0.079478644 0.06437146 0.14910235 0.18545994 0.07699802 -0.020156937 -0.032033604 -0.100343026
-0.026371403 0.11418405 -0.01850202 -0.04565789 -0.06994639 -0.008455508 -0.06062146 -0.009628212
0.052550968 0.020612977 -0.018806467 0.07143091 -0.011770958 -0.022379676 -0.07911526 0.23906438
0.07265282 -0.004933542 0.031914726 0.04071666 0.20444317 0.16202222 0.07243463 -0.11669255
-0.0072838254 0.07148242 0.039479256 -0.02064889 -0.0039317077 -0.08805513 0.10715558 0.060363214
0.09350114 0.03428587 0.032922275 0.114315756 0.10995502 0.1630516 -0.06532886 0.054847576
0.15529157 -0.14202824 -0.08897679 0.02838078 -0.007824919 -0.04385654 -0.053007085 0.12368752
-0.09233056 0.02564486 0.029509816 0.044037126 -0.08418026 -0.086963855 -0.14431211 0.05160587
-0.062372796 0.0032994198 -0.027171595 -0.14970085 0.022309009 0.07289323 0.13669112 0.036780845
0.13206759 0.023178585 -0.029275408 0.14805406 0.038399003 0.02692446 -0.22443466 0.02912172
0.10378795 0.14476573 0.1585274 -0.2728072 -0.26024613 0.071620196 0.119444124 0.062069114
-0.15788953 -0.2552046 -0.14775229 -0.027908308 0.1739941 0.0047954265 -0.12855868 -0.10127524
-0.17156012 0.024502855 0.0058786897 -0.15744409 -0.11986882 -0.0344724 -0.07567328 -0.015056708
0.073337235 0.06447838 -0.04619085 0.010009292 0.20300038 0.023316331 0.032312855 -0.0062152063
-0.15913323 0.21915467 0.17339315 -0.0031662239 0.020621441 0.08570019 -0.2260228 -0.2164073
-0.17584606 -0.14211915 -0.12340025 -0.07270791 0.11864061 -0.14924201 -0.104173176 -0.041413307
-0.12930198 0.23699823 0.0813706 -0.05217953 0.05210823 0.17676651 0.23611635 0.18398547
-0.005534106 -0.13864578 0.09319733 0.13754548 0.17330979 0.09187667 -0.010875002 0.18331444
-0.03580619 0.18327276 0.12983437 0.045408618 0.004709655 0.15019733 -0.019577447 0.083789356
0.13773066 -0.08414668 0.14311293 -0.16377625 0.037990533 -0.027400333 -0.2313674 -0.02144439
-0.17009135 -0.0645258 -0.009311976 -0.025401102 -0.15122871 -0.12155183 0.01375407 -0.012614575
0.0389532 0.05921539 -0.06278945 0.06666989 -0.0735746 -0.063556835 0.13727437 -0.040151436
0.007644812 0.14290878 0.07943888 0.18322416 -0.08400646 -0.12542659 0.028203497 -0.04328531
-0.00088921405 -0.116874315 -0.015371287 -0.09593129 0.047156695 -0.014779239 -0.14101903 0.04724274
0.065024525 0.1261086 0.087319836 -0.08018801 -0.10712513 -0.14160709 0.09482438 0.03710458
0.008169089 -0.11531433 -0.05393438 0.049231034 -0.07630028 0.048522938 -0.10218709 -0.02285742
0.16546427 0.039468203 -0.19245966 -0.23193845 -0.0658799 0.041472327 0.047763817 0.07762896
-0.029412597 0.13819377 0.006703466 -0.11489869 0.02727616 0.04652365 0.018340489 -0.14657563
00000000: b4d8 20bd b700 27be f5bc f6bd 8d50 9f3c
00000010: 202f c63d 80cf 0abd f3da 9bbd b7ab 63be
00000020: e990 c1bd 4e67 e2bd 3de0 6cbd ed54 58be
00000030: 9384 15be 327d 4bbe e20f e7bd f40a e3bd
00000040: ef25 56be d4df 98bd 79ee 33be caf4 e93d
00000050: 2b0e 85bd 2c1f 43be 7839 51bb 3945 d83c
00000060: c976 793e 7f0f 993d 8ae7 5c3d 19ae 9dbc
00000070: 6cdf c13b 690a 253e 4579 ee3d 3312 ee3d
00000080: b3c5 a23d 2fd5 833d 49ae 183e 36e9 3d3e
00000090: 23b1 9d3d 2920 a5bc ab35 03bd a580 cdbd
000000a0: d708 d8bc 54d9 e93d 8c91 97bc c503 3bbd
000000b0: 0e40 8fbd f988 0abc 354e 78bd a6bf 1dbc
000000c0: af3f 573d 8cdc a83c 0510 9abc 5e4a 923d
000000d0: fada 40bc 9555 b7bc 2e07 a2bd 4bcd 743e
000000e0: 00cb 943d 8da9 a1bb 04b9 023d 83c6 263d
000000f0: 8d59 513e 27e9 253e 9b58 943d 81fc eebd
00000100: 28ad eebb 6065 923d 00b5 213d dc27 a9bc
00000110: 8ed5 80bb 3f56 b4bd 6274 db3d 6b3f 773d
00000120: 877d bf3d 576f 0c3d 82d9 063d 611e ea3d
00000130: 1930 e13d 00f7 263e 23cb 85bd daa7 603d
00000140: c104 1f3e da6f 11be 7739 b6bd cf7e e83c
00000150: 1734 00bc eaa2 33bd f51d 59bd e24f fd3d
00000160: ce17 bdbd 2b15 d23c 92be f13c 4660 343d
00000170: b366 acbd 1b1a b2bd 8ec6 13be ad60 533d
00000180: 9e7a 7fbd 143b 583b f796 debc 2e4b 19be
00000190: 62c1 b63c 0c49 953d c2f8 0b3e 83a7 163d
000001a0: ba3c 073e 04e1 bd3c fbd2 efbc 7c9b 173e
000001b0: 4648 1d3d af90 dc3c 33d2 65be ac90 ee3c
000001c0: c78e d43d 783d 143e 0255 223e 63ad 8bbe
000001d0: fb3e 85be 9cad 923d 1f9f f43d 2f3c 7e3d
000001e0: cbad 21be 2daa 82be 604c 17be f79f e4bc
000001f0: 822b 323e f422 9d3b e3a4 03be 6569 cfbd
00000200: 75ad 2fbe 36ba c83c 06a2 c03b 0639 21be
00000210: c97d f5bd ee32 0dbd 98fa 9abd 69b0 76bc
00000220: d531 963d 3e0d 843d 9e32 3dbd 03fe 233c
00000230: 55df 4f3e e401 bf3c 7c5a 043d eea8 cbbb
00000240: d2f3 22be 156a 603e f98d 313e 6c80 4fbb
00000250: 4cee a83c 9583 af3d 8572 67be e099 5dbe
00000260: fd10 34be af87 11be 45b9 fcbd e2e7 94bd
00000270: d9f9 f23d e6d2 18be bf58 d5bd 00a1 29bd
00000280: bd67 04be aaaf 723e a1a5 a63d 34ba 55bd
00000290: 706f 553d 4802 353e 7cc8 713e b066 3c3e
000002a0: 7257 b5bb 29f9 0dbe 3ede be3d b9d8 0c3e
000002b0: 1f78 313e d629 bc3d 102d 32bc c8b6 3b3e
000002c0: 83a9 12bd dbab 3b3e 4df3 043e 63fe 393d
000002d0: 7353 9a3b 54cd 193e e260 a0bc c199 ab3d
000002e0: 4409 0d3e 1855 acbd 328c 123e f6b4 27be
000002f0: f69b 1b3d aa76 e0bc 93eb 6cbe 25ac afbc
00000300: 6d2c 2ebe 1a26 84bd 4291 18bc f915 d0bc
00000310: b3db 1abe 2af0 f8bd c058 613c 5dad 4ebc
00000320: 648d 1f3d d68b 723d c197 80bd 398a 883d
00000330: 48ae 96bd 162a 82bd a791 0c3e d575 24bd
00000340: 5581 fa3b ae56 123e dab0 a23d 1d9f 3b3e
00000350: 940b acbd d46f 00be 050b e73c f04b 31bd
00000360: 251a 69ba cd5b efbd dad7 7bbc a077 c4bd
00000370: 6127 413d 9f24 72bc 4b67 10be 9a81 413d
00000380: 942b 853d 9d22 013e bed4 b23d 9d39 a4bd
00000390: 6c64 dbbd 7301 11be 4933 c23d f9fa 173d
000003a0: a5d7 053c eb29 ecbd 4cea 5cbd 7ba6 493d
000003b0: 5243 9cbd fdbf 463d 7747 d1bd 7c3f bbbc
000003c0: 776f 293e 69a9 213d 2514 45be 4681 6dbe
000003d0: 0aec 86bd e3de 293d fea3 433d effb 9e3d
000003e0: b0f2 f0bc ab82 0d3e c0a8 db3b 0150 ebbd
000003f0: 4172 df3c 958f 3e3d cb3e 963c ec17 16be

conv1.bias f4 [8]
0.17181708 -0.030859258 0.014491112 0.18190311 0.0037271127 -0.31542087 0.14614482 -0.0032227975
00000000: d1f0 2f3e 8ecc fcbc 216c 6d3c cf44 3a3e
00000010: 9342 743b d87e a1be fda6 153e 9235 53bb

bn1.weight f4 [8]
0.79218453 1.2602262 1.335064 1.3173202 0.6971208 0.768122 0.9890583 0.64687955
00000000: 9bcc 4a3f 184f a13f 61e3 aa3f f39d a83f
00000010: 8276 323f a5a3 443f ed32 7d3f e699 253f

bn1.bias f4 [8]
0.13261436 0.12105564 1.5321594 -0.15205237 -0.13021903 -0.11285552 -0.23412324 0.199904
00000000: 0fcc 073e 05ec f73d cd1d c43f 9eb3 1bbe
00000010: 2358 05be cb20 e7bd 01be 6fbe a2b3 4c3e

bn1.running_mean f4 [8]
0.08155751 -0.057937797 0.01817245 -0.060996357 0.028724564 0.18042915 0.010793485 0.0601605
00000000: a007 a73d 2f50 6dbd 64de 943c 51d7 79bd
00000010: c74f eb3c 6bc2 383e 28d7 303c db6a 763d

bn1.running_var f4 [8]
0.018341566 0.0039845486 0.0028572595 0.0311101 0.019893093 0.081477426 0.083303876 0.03980329
00000000: 0d41 963c d190 823b dc40 3b3b 9cda fe3c
00000010: d7f6 a23c a3dd a63d 399b aa3d c608 233d

conv2.weight f4 [16, 8, 5, 5]
-0.14143384 -0.074744366 -0.037728157 -0.08755968 -0.072344445 -0.046961773 -0.14269944 0.035132814
0.032749545 -0.02430902 -0.1257398 -0.044158638 0.024858322 0.111844204 0.024856023 -0.034394264
-0.0146646295 0.056227826 0.12405514 0.083979875 0.0007051683 -0.006116163 0.14119688 0.08871277
0.10000154 -0.17986864 -0.009578705 0.0828658 -0.10834964 -0.22043538 0.11386437 -0.060611356
0.037785158 0.023095492 -0.00623849 0.20312692 -0.07500345 0.23336178 -0.20397197 -0.061256167
0.16001831 -0.07694407 0.15761454 -0.034471307 -0.22581348 0.061449133 0.035123322 -0.14348328
-0.0053789755 -0.12047761 -0.060602173 0.14951259 -0.35552552 0.51295155 -0.2313408 0.20453377
0.11725983 -0.61370087 0.5337649 -0.220659 0.085497364 0.18280122 -0.2965198 0.033611733
-0.14765382 -0.0059163375 -0.106369294 0.15857796 -0.13652106 -0.16424239 0.034507126 0.08566595
0.09515232 -0.11889618 0.14826803 0.022817496 -0.027805693 0.09553939 0.027147675 -0.00935116
0.007133708 -0.05412387 -0.0040213093 0.07566097 -0.06873387 0.030085757 0.060542565 -0.042394914
-0.007397393 -0.021010999 -0.0028912954 0.066752 -0.028292816 0.012515691 -0.030886889 0.039032094
-0.0004500884 0.028296461 -0.08560784 -0.013504593 0.027432801 0.051795084 0.051827587 0.098849475
0.11652996 0.09945373 0.08237536 -0.0014544062 0.09005315 0.088835925 -0.02376433 -0.074482374
-0.029275462 -0.051159367 0.018942585 -0.10105212 -0.1359308 -0.17678949 -0.16095513 0.004764043
-0.013430791 -0.06855888 -0.22562999 -0.18574588 -0.1434649 -0.06463079 0.025928328 0.10970122
-0.028928403 -0.010924372 -0.046178225 -0.048409548 0.039946806 -0.008059289 -0.0010151183 0.04567342
0.05988845 -0.020976732 0.015307032 -0.07854778 -0.078134745 -0.06555031 -0.06147934 -0.03481227
-0.040743884 -0.048004117 0.0053227046 -0.03735401 0.003746192 -0.040292557 -0.08593812 -0.110696994
-0.08522434 -0.055123482 -0.12651443 -0.02617481 0.041223913 -0.035870705 0.012687559 -0.09995874
0.044803023 -0.062958024 -0.0013546783 -0.048027083 -0.034605812 0.0047561363 -0.048348457 0.0012873628
0.018921945 0.009598489 0.08271165 0.0917076 0.058796015 0.032322682 0.0735704 -0.075011596
-0.11207124 -0.060908146 -0.06172704 -0.080352195 -0.062361978 -0.08101431 -0.09878022 -0.069146246
-0.047256473 0.04128684 -0.0020984672 0.030427715 0.07404579 0.06362438 0.050930776 -0.054810103
0.122953616 0.050691683 0.051380873 0.06967515 0.06935846 0.10580512 0.05351979 0.116022095
-0.115776174 0.015490282 -0.03430403 0.08189287 0.040271454 0.00847198 0.1492727 0.03503386
0.08935723 0.0077969106 0.1070629 0.041498702 -0.00029089279 -0.034165148 -0.12421227 -0.051169112
0.06953928 -0.057304475 -0.03559761 -0.03836942 -0.04289389 0.008289594 0.07952147 0.05539127
0.029335879 -0.02864437 0.10980214 0.19670273 0.1643481 -0.0476703 0.11207694 -0.085552424
0.07947582 0.0627854 0.04553441 -0.21276681 -0.28601998 -0.2359739 0.024155168 0.14764217
-0.05112147 -0.16862741 0.10325536 0.1251471 -0.15007827 0.04833181 0.12706105 0.030997088
-0.09520718 -0.111342624 -0.11443228 -0.12565705 -0.01199624 0.0030745182 0.050052293 0.23031577
00000000: 08d4 10be 9313 99bd d788 1abd 7d52 b3bd
00000010: 5329 94bd fd5a 40bd cd1f 12be 6de7 0f3d
00000020: 6324 063d b623 c7bc efc1 00be b0df 34bd
00000030: aea3 cb3c 930e e53d dc9e cb3c 00e1 0cbd
00000040: ea43 70bc 264f 663d 9f10 fe3d a4fd ab3d
00000050: 0bdb 383a 186a c8bb ea95 103e 0aaf b53d
00000060: 9bcd cc3d 7c2f 38be 00f0 1cbc 8bb5 a93d
00000070: 6be6 ddbd d0b9 61be b931 e93d 9d43 78bd
00000080: 9cc4 1a3d c232 bd3c 3f6c ccbb 8100 503e
00000090: 699b 99bd 64f6 6e3e 07de 50be bfe7 7abd
000000a0: d7db 233e da94 9dbd b565 213e c931 0dbd
000000b0: a63b 67be 16b2 7b3d 79dd 0f3d 48ed 12be
000000c0: 1e42 b0bb f7bc f6bd fc39 78bd d419 193e
000000d0: 7107 b6be cb50 033f 9ae4 6cbe 4d71 513e
000000e0: ec25 f03d 801b 1dbf d1a4 083f 6ff4 61be
000000f0: 3e19 af3d 3e30 3b3e 71d1 97be 75ac 093d
00000100: 9032 17be d6dd c1bb 25d8 d9bd 4362 223e
00000110: 2dcc 0bbe 282f 28be 5857 0d3d a171 af3d
00000120: 38df c23d d77f f3bd 93d3 173e c2eb ba3c
00000130: c4c8 e3bc 28aa c33d cd64 de3c 9c35 19bc
00000140: e1c1 e93b feb0 5dbd 30c5 83bb 23f4 9a3d
00000150: 58c4 8cbd 6876 f63c 7bfb 773d 4aa6 2dbd
00000160: d565 f2bb 421f acbc e37b 3dbb 46b5 883d
00000170: 56c6 e7bc 9d0e 4d3c 8006 fdbc 1ee0 1f3d
00000180: d8f9 ebb9 fbcd e73c 2a53 afbd 5e42 5dbc
00000190: c1ba e03c 1527 543d 2a49 543d 9871 ca3d
000001a0: 42a7 ee3d 66ae cb3d 6ab4 a83d c6a1 beba
000001b0: c96d b83d 9cef b53d 6aad c2bc 378a 98bd
000001c0: 18d3 efbc 7c8c 51bd 7b2d 9b3c 6af4 cebd
000001d0: 7231 0bbe 4e08 35be 6cd1 24be b01b 9c3b
000001e0: d20c 5cbc 9968 8cbd 8c0b 67be 2b34 3ebe
000001f0: 76e8 12be 265d 84bd a567 d43c 09ab e03d
00000200: 42fb ecbc 23fc 32bc 6125 3dbd 1749 46bd
00000210: 439f 233d 1c0b 04bc b80d 85ba 0d14 3b3d
00000220: 974d 753d 65d7 abbc 58ca 7a3c a9dd a0bd
00000230: 1c05 a0bd 3e3f 86bd c3d1 7bbd 5097 0ebd
00000240: 0fe3 26bd f79f 44bd 156a ae3b 8500 19bd
00000250: ac82 753b cf09 25bd 5300 b0bd 1bb5 e2bd
00000260: 198a aebd 29c9 61bd 008d 01be 8e6c d6bc
00000270: 68da 283d 29ed 12bd 7bdf 4f3c 2bb7 ccbd
00000280: 6083 373d 23f0 80bd 768f b1ba 0cb8 44bd
00000290: d3be 0dbd 5dd9 9b3b 0809 46bd babc a83a
000002a0: 3202 9b3c fb42 1d3c ba64 a93d 32d1 bb3d
000002b0: 17d4 703d ca64 043d 14ac 963d ae9f 99bd
000002c0: 9b85 e5bd d27a 79bd 7ed5 7cbd b18f a4bd
000002d0: 466f 7fbd d5ea a5bd 494d cabd 8c9c 8dbd
000002e0: 0190 41bd 641c 293d 7086 09bb 8b43 f93c
000002f0: 52a5 973d 804d 823d ca9c 503d 8f80 60bd
00000300: 1bcf fb3d 15a2 4f3d c074 523d d8b1 8e3d
00000310: cf0b 8e3d 5bb0 d83d 9137 5b3d fe9c ed3d
00000320: 0f1c edbd f4ca 7d3c 6282 0cbd 73b7 a73d
00000330: aef3 243d 0fce 0a3c f1da 183e aa7f 0f3d
00000340: ec00 b73d 3a7d ff3b cb43 db3d 8bfa 293d
00000350: f882 98b9 c1f0 0bbd 0163 febd b496 51bd
00000360: 9c6a 8e3d 19b8 6abd cdce 11bd 4129 1dbd
00000370: 81b1 2fbd 14d1 073c 27dc a23d f5e1 623d
00000380: cc51 f03c 99a7 eabc f2df e03d 716c 493e
00000390: de4a 283e ef41 43bd 9888 e53d 1c36 afbd
000003a0: 38c4 a23d a295 803d 4a82 3a3d 8bdf 59be
000003b0: 3671 92be 24a3 71be 0fe1 c53c 822f 173e
000003c0: bf64 51bd aaac 2cbe 8c77 d33d 9026 003e
000003d0: 1eae 19be 93f7 453d 4b1c 023e 9bed fd3c
000003e0: fbfb c2bd 9a07 e4bd 795b eabd 3eac 00be
000003f0: e18b 44bc db7d 493b a203 4d3d e6d7 6b3e

conv2.bias f4 [16]
0.054221306 -0.03654347 -0.049601953 0.053124197 0.03910267 -0.048997052 0.07438515 0.02464058
-0.0042766375 0.020056892 0.04998125 -0.06309559 0.011403968 0.12545174 0.043225326 -0.1252922
00000000: 2917 5e3d 9bae 15bd 6b2b 4bbd c298 593d
00000010: 1f2a 203d 22b1 48bd 3e57 983d 0bdb c93c
00000020: 0923 8cbb 5a4e a43c 24b9 4c3d 4338 81bd
00000030: b5d7 3a3c 6c76 003e 0a0d 313d 994c 00be

bn2.weight f4 [16]
0.86909443 1.0731814 0.7806885 0.93676955 0.75651586 0.8998272 1.0203351 1.0715425
0.8812156 0.9671524 0.9605417 0.9461861 0.95960283 1.0544369 0.86541146 0.9601176
00000000: f97c 5e3f 025e 893f 34db 473f 21d0 6f3f
00000010: 06ab 413f 135b 663f 579a 823f 4e28 893f
00000020: 5897 613f 4d97 773f 10e6 753f 4139 723f
00000030: 88a8 753f caf7 863f 9b8b 5d3f 44ca 753f

bn2.bias f4 [16]
-0.21940453 -0.4745118 -0.4014525 -0.46512023 -0.21172945 -0.25002718 -0.67567676 -0.48162177
-0.18455663 -0.38161427 -0.2180088 -0.35857776 -0.5829112 -0.0091514 -0.26738825 -0.3098425
00000000: 95ab 60be 36f3 f2be 2f8b cdbe 3d24 eebe
00000010: 9bcf 58be 9003 80be 27f9 2cbf 2197 f6be
00000020: 6afc 3cbe f262 c3be b33d 5fbe 8197 b7be
00000030: ab39 15bf c1ef 15bc 1de7 88be ada3 9ebe

bn2.running_mean f4 [16]
-0.48518872 -0.1320345 1.417413 0.1400182 -3.0247405 -1.8950968 -1.2253126 0.16946694
-2.3162785 -2.6411862 -3.0001864 -0.80614334 -1.3965284 -1.1552703 0.9297606 -2.4443915
00000000: a86a f8be 0d34 07be ca6d b53f ee60 0f3e
00000010: 5995 41c0 8892 f2bf 0bd7 9cbf be88 2d3e
00000020: e83d 14c0 3209 29c0 0e03 40c0 695f 4ebf
00000030: 71c1 b2bf e6df 93bf ca04 6e3f e970 1cc0

bn2.running_var f4 [16]
1.4465673 2.3458683 4.631938 5.6020036 3.4221804 5.0235376 2.249185 4.591787
7.195669 7.401502 5.94667 4.1539187 2.2078986 4.6426296 9.362439 4.9797907
00000000: 1e29 b93f b522 1640 d638 9440 9d43 b340
00000010: 0105 5b40 d2c0 a040 a6f2 0f40 ebef 9240
00000020: ec42 e640 1bd9 ec40 1f4b be40 e7ec 8440
00000030: 364e 0d40 6c90 9440 8dcc 1541 725a 9f40

conv3.weight f4 [32, 16, 5, 5]
-0.107917204 -0.06864106 -0.082492106 0.0033849676 0.062133536 -0.0068201106 -0.03681753 -0.070827916
0.037243385 0.064386666 -0.001700948 0.026806382 -0.010653606 0.032895677 0.04349274 0.013089975
0.055960435 0.018420389 0.059248544 0.031088846 -0.044569287 0.105701715 0.059568375 0.047728255
-0.022198232 -0.25002214 -0.15022391 -0.1590139 -0.1650009 -0.2197961 -0.15521121 -0.012636523
-0.03674028 -0.060191806 -0.10658302 -0.06984325 0.040305246 0.03881142 0.028185882 -0.08754449
-0.061248574 0.05716715 0.01898635 0.001355114 -0.038563263 -0.0745992 -0.025975414 -0.04346222
-0.10607949 -0.13599499 -0.090194315 -0.05746366 -0.11016813 -0.19441837 -0.12248716 0.0094647715
0.020804508 -0.022947818 -0.08798957 -0.08218922 0.020296197 0.032633472 -0.022333382 -0.061149184
-0.031486318 -0.07088841 -0.009492873 -0.024428971 -0.036226735 -0.006251391 -0.11743224 -0.03729048
-0.0191002 -0.017515639 -0.012517561 -0.24808533 -0.18168576 -0.20759098 -0.18338704 -0.03931807
-0.13956156 -0.014910695 0.026874676 0.05742333 0.006361237 -0.07493493 -0.026283933 0.07122858
0.059619434 0.011361243 -0.12800232 -0.05857129 0.048010748 0.056140654 -0.012805126 -0.27044386
-0.1764682 -0.06589939 -0.067019224 -0.08836758 -0.02660684 -0.027871152 0.035972014 0.02790075
0.028104203 0.03663843 0.026328238 -0.05377535 -0.021277104 0.021198811 -0.032543223 0.032353945
0.04184051 0.004568046 -0.054738965 0.009280251 -0.017269107 -0.052934006 -0.061186355 -0.021272965
-0.03013321 -0.055753745 0.022360012 -0.024082586 0.003835168 -0.09651703 -0.045443512 0.020401608
0.018397016 0.016066654 -0.033527464 -0.016884478 -0.03476779 0.0047199796 0.033574555 -0.022147212
-0.08555151 -0.07097159 -0.052558657 0.008019692 -0.045127787 -0.034929253 -0.072911 -0.07860109
-0.02796496 -0.097005464 -0.08144715 -0.09974679 -0.030040491 -0.02881327 0.0349768 0.06399473
0.15724933 0.17651972 0.1701047 0.11085523 0.13215764 0.24955715 0.17727393 0.11712543
0.1442124 0.19959895 0.27934957 0.22139923 0.104130015 0.11620524 0.11631721 0.21513173
0.1251507 0.082573295 0.046100546 0.08120334 0.0634679 0.08069262 0.04409417 -0.05048033
-0.058466453 0.017274963 -0.01762478 -0.102939256 -0.059988488 0.038570117 0.10705046 0.0779333
-0.01852743 0.042153746 0.08355086 0.21576816 0.15702684 0.048148453 -0.011120053 -0.02599594
0.092033856 0.09638005 -0.04274811 0.00909119 -0.0438717 -0.052644726 0.011744777 0.01032355
0.1911429 0.15133163 0.07597462 0.034892082 0.124956965 0.13014634 0.028647933 0.025185302
-0.00753709 0.012971142 0.051487647 -0.04715844 -0.05861291 -0.008665128 -0.069075264 0.002108885
0.03599082 0.016451145 -0.050264373 -0.010483844 0.07821602 0.09564145 0.04463854 0.031190773
0.104163505 -0.253432 -0.2707848 -0.21533154 -0.13761781 -0.10301711 -0.2674549 -0.19880964
-0.24868195 -0.17485334 -0.07044517 -0.1964799 -0.24112292 -0.30589914 -0.24351937 -0.110693954
-0.22670197 -0.22782421 -0.23652971 -0.15971263 -0.09876265 -0.35130766 -0.31294864 -0.24221699
-0.20083517 -0.16826907 0.09098315 -0.005010326 0.058703545 -0.023075543 -0.045121737 0.020185065
00000000: b203 ddbd af93 8cbd 9ff1 a8bd 55d6 5d3b
00000010: bc7f 7e3d 3c7b dfbb facd 16bd 3a0e 91bd
00000020: 858c 183d 28dd 833d 58f2 deba 0f99 db3c
00000030: 768c 2ebc 9ebd 063d 7125 323d 5677 563c
00000040: c536 653d 5be6 963c 9aae 723d 09ae fe3c
00000050: 498e 36bd 247a d83d f8fd 733d b47e 433d
00000060: 11d9 b5bc e702 80be 4cd4 19be 8ad4 22be
00000070: fff5 28be 3b12 61be b0ef 1ebe 6b09 4fbc
00000080: fa7c 16bd af8b 76bd 3348 dabd fa09 8fbd
00000090: 1d17 253d b9f8 1e3d 14e6 e63c 874a b3bd
000000a0: c9df 7abd 1a28 6a3d 4389 9b3c 159e b13a
000000b0: 83f4 1dbd 77c7 98bd 64ca d4bc 7105 32bd
000000c0: 3440 d9bd 4542 0bbe ccb7 b8bd 045f 6bbd
000000d0: d49f e1bd 9c15 47be 8cda fabd 2112 1b3c
000000e0: 376e aa3c 10fd bbbc e033 b4bd d252 a8bd
000000f0: 3644 a63c adaa 053d 7ff4 b6bc 9177 7abd
00000100: ccf7 00bd f12d 91bd ff87 1bbc 441f c8bc
00000110: 7c62 14bd 78d8 ccbb 5080 f0bd e7bd 18bd
00000120: 0678 9cbc f57c 8fbc 7516 4dbc 150a 7ebe
00000130: d50b 3abe bb92 54be d0c9 3bbe fc0b 21bd
00000140: 3ae9 0ebe fd4b 74bc 4828 dc3c ba34 6b3d
00000150: ec71 d03b 7c77 99bd 6751 d7bc 4ae0 913d
00000160: 8233 743d 8224 3a3c 0a13 03be 73e8 6fbd
00000170: eba6 443d bef3 653d 97cc 51bc 9e77 8abe
00000180: 14b4 34be 42f6 86bd 6041 89bd 10fa b4bd
00000190: 96f6 d9bc 0b52 e4bc 6457 133d 1d90 e43c
000001a0: c93a e63c 2e12 163d 51ae d73c 8b43 5cbd
000001b0: 524d aebc 21a9 ad3c 0b4c 05bd 9285 043d
000001c0: f460 2b3d 8caf 953b f735 60bd 320c 183c
000001d0: f177 8dbc 54d1 58bd 8b9e 7abd a444 aebc
000001e0: ecd9 f6bc 0a5e 64bd 582c b73c d848 c5bc
000001f0: 7157 7b3b b8aa c5bd fa22 3abd 4621 a73c
00000200: 57b5 963c 379e 833c 1854 09bd 5151 8abc
00000210: ac68 0ebd 0faa 9a3b 7985 093d 126e b5bc
00000220: a135 afbd 8e59 91bd bf47 57bd 0765 033c
00000230: ead7 38bd fa11 0fbd 5d52 95bd 9cf9 a0bd
00000240: c616 e5bc cdaa c6bd c3cd a6bd 0c48 ccbd
00000250: 7a17 f6bc cf09 ecbc d543 0f3d ab0f 833d
00000260: f805 213e 96c1 343e ed2f 2e3e 1108 e33d
00000270: 5554 073e e98b 7f3e 4c87 353e 75df ef3d
00000280: 6aac 133e ab63 4c3e e806 8f3e 7bb6 623e
00000290: 1e42 d53d 03fd ed3d b837 ee3d 7e4b 5c3e
000002a0: 8127 003e 301c a93d edd3 3c3d f04d a63d
000002b0: 75fb 813d 2c42 a53d 179c 343d 76c4 4ebd
000002c0: 857a 6fbd 3984 8d3c d861 90bc d1d1 d2bd
000002d0: 7db6 75bd b3fb 1d3d 463d db3d 7e9b 9f3d
000002e0: d6c6 97bc 68a9 2c3d b71c ab3d 54f2 5c3e
000002f0: a5cb 203e 5037 453d e230 36bc 70f5 d4bc
00000300: 3f7c bc3d e762 c53d a418 2fbd 37f3 143c
00000310: d0b2 33bd ffa1 57bd 2a6d 403c 1b24 293c
00000320: f7ba 433e aef6 1a3e 9598 9b3d 00eb 0e3d
00000330: 70e9 ff3d 1545 053e 12af ea3c 6851 ce3c
00000340: b2f9 f6bb ea84 543c b6e4 523d 3529 41bd
00000350: 1714 70bd 2ef8 0dbc 5577 8dbd 3835 0a3b
00000360: 1c6b 133d 8dc4 863c 04e2 4dbd 6ec4 2bbc
00000370: b82f a03d aadf c33d e7d6 363d cb83 ff3c
00000380: ad53 d53d d7c1 81be 4ea4 8abe df7f 5cbe
00000390: afeb 0cbe a2fa d2bd d9ef 88be c194 4bbe
000003a0: 7ba6 7ebe c10c 33be 8f45 90bd 0732 49be
000003b0: ede8 76be d09e 9cbe 245d 79be 83b3 e2bd
000003c0: 9024 68be c04a 69be d834 72be b58b 23be
000003d0: 1244 cabd 99de b3be ce3a a0be bb07 78be
000003e0: bca7 4dbe ba4e 2cbe 6055 ba3d a92d a4bb
000003f0: 2173 703d ec08 bdbc 92d1 38bd 265b a53c

conv3.bias f4 [32]
-0.00787435 -0.00422583 0.027128633 -0.031390786 -0.035713676 -0.059381574 0.0354433 0.04119227
-0.07848775 -0.024819516 0.01710166 -0.027022114 0.0306077 -0.05895931 0.019119343 -0.012661447
-0.0030918787 0.0036968552 -0.03215166 -0.05888553 -0.059232548 -0.03785529 -0.029557064 0.032551553
-3.6631405e-05 -0.05366156 -0.053031027 -0.018886268 0.021220367 -0.041234005 -0.0878515 0.009415099
00000000: 6b03 01bc d578 8abb de3c de3c a093 00bd
00000010: 8148 12bd 183a 73bd fe2c 113d 3ab9 283d
00000020: 2fbe a0bd 4c52 cbbc c818 8c3c 7b5d ddbc
00000030: 00bd fa3c 517f 71bd 2ba0 9c3c f571 4fbc
00000040: 1ea1 4abb f046 723b 76b1 03bd f431 71bd
00000050: d49d 72bd 260e 1bbd a821 f2bc c754 053d
00000060: aca4 19b8 39cc 5bbd 1037 59bd 60b7 9abc
00000070: 56d6 ad3c fde4 28bd 7deb b3bd ca41 1a3c

bn3.weight f4 [32]
0.95620316 0.95825404 0.84468734 1.0121361 1.0153458 0.82310575 0.88450557 0.9210298
0.9050085 0.77154547 1.0086595 0.86962545 0.9670722 0.90425885 0.9462376 1.0201851
0.9917283 0.9337714 0.9125075 1.0642184 0.91245055 0.9319375 0.99571514 1.0837168
0.8946249 0.9081648 0.95254356 1.1791157 1.0064472 0.9344446 0.91577077 0.85944396
00000000: bbc9 743f 2350 753f 6e3d 583f ad8d 813f
00000010: daf6 813f 0fb7 523f f56e 623f 9cc8 6b3f
00000020: a3ae 673f 0184 453f c11b 813f c69f 5e3f
00000030: 0b92 773f 827d 673f a13c 723f 6d95 823f
00000040: e8e1 7d3f a40b 6f3f 179a 693f 4f38 883f
00000050: 5c96 693f 7593 6e3f 30e7 7e3f 3bb7 8a3f
00000060: 2306 653f 7d7d 683f e5d9 733f 43ed 963f
00000070: 43d3 803f c337 6f3f f46f 6a3f 8504 5c3f

bn3.bias f4 [32]
0.04894139 -0.7278133 -0.23369 -0.1968474 -0.2744016 -0.120039195 -0.51331985 -0.57353896
-0.27425826 -0.4310755 -0.4004257 -0.104952656 -0.39058393 -0.173476 -0.27785861 -0.42626217
-0.39179587 -0.48077285 -0.47828016 -0.41102898 -0.3558577 -0.20574135 -0.3339777 -0.46614528
-0.5205 -0.41584277 -0.419261 -0.614469 -0.34437478 -0.21224287 -0.43189222 -0.37746766
00000000: c476 483d f951 3abf 6e4c 6fbe 5d92 49be
00000010: 5e7e 8cbe 1cd7 f5bd ee68 03bf 73d3 12bf
00000020: 946b 8cbe eeb5 dcbe 9904 cdbe 6bf1 d6bd
00000030: 9efa c7be b1a3 31be 7c43 8ebe 093f dabe
00000040: 7899 c8be dc27 f6be 23e1 f4be 6472 d2be
00000050: fb32 b6be dcad 52be 20ff aabe 98aa eebe
00000060: 7d3f 05bf 58e9 d4be 61a9 d6be d74d 1dbf
00000070: e451 b0be 3256 59be fa20 ddbe 7143 c1be

bn3.running_mean f4 [32]
-2.161664 0.17596948 -2.8421235 -0.47596595 -4.6736617 -3.7547164 0.53745776 -2.787632
-0.30168074 -2.6691022 -2.4095845 1.9265934 -3.8688018 -0.40624413 -0.72499394 -0.31083605
-2.503499 -3.1285565 -0.16922355 0.35136095 -0.12191913 -3.9905221 -2.3676054 -0.63633764
-2.8220193 -2.24547 -1.1935769 -1.1645709 0.99432296 -0.8909759 -1.7782357 3.606246
00000000: b458 0ac0 5831 343e 5ae5 35c0 cfb1 f3be
00000010: a38e 95c0 464d 70c0 d596 093f 9068 32c0
00000020: e675 9abe 92d2 2ac0 a236 1ac0 9d9a f63f
00000030: 739a 77c0 3bff cfbe 3499 39bf e725 9fbe
00000040: 5439 20c0 453a 48c0 f048 2dbe 95e5 b33e
00000050: bdb0 f9bd b764 7fc0 d986 17c0 06e7 22bf
00000060: f79b 34c0 c8b5 0fc0 21c7 98bf a910 95bf
00000070: f38b 7e3f ff16 64bf 3a9d e3bf bccc 6640

bn3.running_var f4 [32]
14.364062 4.083149 8.218717 12.344922 10.50353 7.698795 4.2389073 7.7062964
4.5840397 5.8260064 5.303519 6.8446126 13.65951 9.8850765 5.9838605 3.9330392
9.666811 6.530857 5.5659127 8.735086 7.087224 12.079686 9.214929 14.4389925
8.530711 7.628757 9.109246 6.1395173 5.3865533 10.630635 5.628167 8.437128
00000000: 33d3 6541 28a9 8240 dd7f 0341 cd84 4541
00000010: 750e 2841 875c f640 21a5 8740 fb99 f640
00000020: 74b0 9240 a56e ba40 6db6 a940 1107 db40
00000030: 5a8d 5a41 4629 1e41 c97b bf40 eab6 7b40
00000040: 42ab 1a41 c8fc d040 f51b b240 eac2 0b41
00000050: 8aca e240 6546 4141 5970 1341 1d06 6741
00000060: cb7d 0841 c71e f440 79bf 1141 ed76 c440
00000070: a55e ac40 1517 2a41 f219 b440 7afe 0641

conv4.weight f4 [32, 32, 5, 5]
-0.049787745 0.03180933 0.06981025 0.061016705 -0.013014196 -0.015263202 0.110510014 0.13367152
0.13493706 0.0946264 0.03185037 0.15841295 0.18859985 0.1747538 0.07412328 0.062501036
0.14921601 0.16742769 0.1932153 0.06881426 -0.016382288 0.05999761 0.13589622 0.12561351
0.04778518 -0.08556334 -0.066339485 -0.054669186 -0.038486492 -0.060088944 -0.024690626 -0.05133125
-0.047606636 -0.0037843925 -0.015114568 0.056993578 0.014048675 0.014221026 0.048430406 0.056197107
0.09932708 0.012205304 0.05576542 0.07649975 0.055102624 0.19418846 0.11706947 0.110714324
0.103412464 0.1068671 -0.23876555 -0.29584944 -0.25958228 -0.2717847 -0.22068234 -0.21671285
-0.28972447 -0.27731267 -0.20927745 -0.24200785 -0.21185236 -0.18598892 -0.19674635 -0.19391039
-0.18600638 -0.14888974 -0.18644619 -0.1596187 -0.16431755 -0.18103938 -0.17418045 -0.16335475
-0.16337548 -0.18814804 -0.09995045 -0.113267526 -0.038889445 -0.07600339 -0.09870739 -0.14053912
-0.02741368 -0.015951172 -0.0051010065 0.020542394 -0.10304952 0.012058328 0.012688481 0.008769845
-0.011795798 -0.04583778 -0.02579253 0.07532774 0.017430704 0.059586186 0.0066883718 -0.012591716
0.014808317 0.017467275 0.023730572 -0.07473931 -0.009335509 -0.057370447 -0.024019977 -0.012081211
-0.021126065 -0.030953046 -0.14626577 -0.067269 -0.07790086 -0.03821647 0.009563239 -0.0536469
-0.06959516 -0.07462454 -0.008337706 -0.019008752 -0.119427875 -0.03371158 -0.03562294 -0.038509686
0.05488274 -0.019783122 0.026804075 0.026749041 0.0782641 0.08744816 0.0337857 0.123998955
0.064439796 0.064031996 0.07930694 0.0019663707 0.08272889 0.0057267803 0.05777817 0.08335912
0.083104454 0.09491433 0.06758451 0.09919609 0.04766665 0.0059144353 0.014538379 0.00172718
-0.005231104 0.11836992 0.03695393 0.059626803 0.013590137 0.037237894 -0.17648171 -0.15658836
-0.12836783 -0.13677323 -0.19289847 -0.101681486 -0.12343877 -0.09317796 -0.08608313 -0.066596396
-0.12500189 -0.06456488 -0.073580064 -0.07758599 -0.08941102 -0.20168023 -0.15172839 -0.11658003
-0.08034711 -0.11758331 -0.21895486 -0.222033 -0.18127237 -0.18100607 -0.19764313 -0.29447392
-0.29054558 -0.24085729 -0.2697143 -0.28720516 -0.2900978 -0.23165576 -0.17675632 -0.21827154
-0.20686956 -0.29354742 -0.20854388 -0.14890859 -0.15589656 -0.24709508 -0.3041284 -0.23334406
-0.19784878 -0.19469823 -0.24728459 -0.38159305 -0.2860657 -0.28271803 -0.2973862 -0.3277475
0.03809539 0.0099780075 0.044771634 0.0011633526 0.054776173 0.042302232 -0.0039446657 0.051371638
0.05236642 0.06888704 0.0010432448 0.033254407 0.025870968 0.06046429 0.062646456 0.008135373
-0.0008483288 0.0395245 0.016130978 0.082882054 -0.01593018 -0.025170593 -0.030392746 0.015104015
0.05101614 -0.28279987 -0.18103993 -0.15113555 -0.11783975 -0.14629366 -0.19496182 -0.14743583
-0.14562352 -0.11692449 -0.10957924 -0.18318668 -0.08930214 -0.063258916 -0.05598129 -0.048827548
-0.17595345 -0.11986206 -0.06715779 -0.03175266 -0.08079975 -0.16594307 -0.12776814 -0.13350284
-0.07593008 -0.14225996 -0.0878956 -0.08560993 -0.09689908 -0.08703265 -0.051632065 -0.075846605
00000000: 3cee 4bbd 804a 023d adf8 8e3d a7ec 793d
00000010: 7f39 55bc 8212 7abc 1353 e23d 30e1 083e
00000020: f12c 0a3e 7ccb c13d 8975 023d 0137 223e
00000030: 5220 413e a9f2 323e f2cd 973d 8b00 803d
00000040: 15cc 183e 2a72 2b3e 3bda 453e 7eee 8c3d
00000050: 2634 86bc 0ec0 753d 6128 0b3e d4a0 003e
00000060: 65ba 433d d53b afbd ffdc 87bd ccec 5fbd
00000070: 03a4 1dbd d31f 76bd ff43 cabc b840 52bd
00000080: 2dff 42bd 9203 78bb 18a3 77bc 1972 693d
00000090: 6a2c 663c 4eff 683c f65e 463d f02e 663d
000000a0: ff6b cb3d c1f8 473c 486a 643d e7ab 9c3d
000000b0: 4ab3 613d 57d9 463e 1ec2 ef3d 31be e23d
000000c0: eac9 d33d 23dd da3d f57e 74be 9479 97be
000000d0: f8e7 84be 5d27 8bbe 8dfa 61be f9e9 5dbe
000000e0: c456 94be edfb 8dbe d44c 56be e8d0 77be
000000f0: d3ef 58be e173 3ebe e077 49be 7290 46be
00000100: 7578 3ebe 8d76 18be c0eb 3ebe 1673 23be
00000110: dc42 28be 6362 39be 5c5c 32be 7846 27be
00000120: e74b 27be e1a9 40be d2b2 ccbd cef8 e7bd
00000130: 8a4a 1fbd aaa7 9bbd 1a27 cabd 7de9 0fbe
00000140: a792 e0bc 08ac 82bc 5826 a7bb 8648 a83c
00000150: a00b d3bd 4b90 453c 59e3 4f3c 65af 0f3c
00000160: 2a43 41bc 65c0 3bbd db4a d3bc 6e45 9a3d
00000170: d6ca 8e3c a510 743d 212a db3b 7c4d 4ebc
00000180: 959e 723c 8817 8f3c 9e66 c23c ec10 99bd
00000190: f6f3 18bc 46fd 6abd 8bc5 c4bc 46f0 45bc
000001a0: 9210 adbc 3e91 fdbc b2c6 15be 54c4 89bd
000001b0: 7c8a 9fbd e088 1cbd 22af 1c3c dabc 5bbd
000001c0: e887 8ebd c0d4 98bd e09a 08bc 3eb8 9bbc
000001d0: 9a96 f4bd 2715 0abd 5ce9 11bd 55bc 1dbd
000001e0: b9cc 603d 3710 a2bc 3894 db3c ce20 db3c
000001f0: ee48 a03d 0518 b33d e062 0a3d 2af3 fd3d
00000200: 03f9 833d 3523 833d ad6b a23d 3ade 003b
00000210: c46d a93d b7a7 bb3b cda8 6c3d 30b8 aa3d
00000220: ab32 aa3d 7262 c23d bf69 8a3d 5227 cb3d
00000230: 1b3e 433d e1cd c13b 6232 6e3c 8b62 e23a
00000240: ae69 abbb ee6b f23d 015d 173d 3c3b 743d
00000250: 2aa9 5e3c c386 183d 9fb7 34be b358 20be
00000260: db72 03be 480e 0cbe 2d87 45be 623e d0bd
00000270: 77cd fcbd 16d4 bebd 5a4c b0bd b163 88bd
00000280: 7f00 00be 983a 84bd 25b1 96bd 67e5 9ebd
00000290: 201d b7bd 4385 4ebe b05e 1bbe 83c1 eebd
000002a0: 078d a4bd 85cf f0bd b435 60be 9e5c 63be
000002b0: 779f 39be a859 39be f662 4abe 49c5 96be
000002c0: 64c2 94be 4ba3 76be fe17 8abe 8e0c 93be
000002d0: b387 94be 2b37 6dbe 9cff 34be 9382 5fbe
000002e0: 9dd5 53be d94b 96be 878c 55be 7e7b 18be
000002f0: 59a3 1fbe 7e06 7dbe b8b6 9bbe bff1 6ebe
00000300: df98 4abe f95e 47be 2c38 7dbe 2a60 c3be
00000310: 3477 92be 6bc0 90be 0143 98be 85ce a7be
00000320: e909 1c3d cc7a 233c 7662 373d a37b 983a
00000330: fb5c 603d 1b45 2d3d 4142 81bb 116b 523d
00000340: 2c7e 563d a614 8d3d 7dbd 883a c635 083d
00000350: 5aef d33c 67a9 773d c94c 803d 3a4a 053c
00000360: 6262 5eba 71e4 213d 1d25 843c 11be a93d
00000370: 0280 82bc 8f32 cebc 35fa f8bc d576 773c
00000380: 4df6 503d 25cb 90be 8862 39be 47c3 1abe
00000390: f855 f1bd 01ce 15be 12a4 47be 6bf9 16be
000003a0: 551e 15be 1b76 efbd 156b e0bd 4a95 3bbe
000003b0: 0ae4 b6bd e48d 81bd a34c 65bd 65ff 47bd
000003c0: 242d 34be 3d7a f5bd 068a 89bd 140f 02bd
000003d0: 577a a5bd fbec 29be a7d5 02be f8b4 08be
000003e0: 3b81 9bbd 98ac 11be 9c02 b4bd 4254 afbd
000003f0: 0673 c6bd 2d3e b2bd 257c 53bd 7755 9bbd

conv4.bias f4 [32]
0.059380256 0.096984945 0.06729103 -0.07233173 0.07228528 0.23712207 -0.068445385 -0.17300788
0.045849774 -0.015462965 0.14072266 0.22725768 0.1537128 0.13890396 0.10892051 0.08713622
-0.041970123 0.022836557 -0.026045121 0.10547368 -0.016482983 0.02655075 0.11832936 -0.06671341
0.017073683 -0.036190838 0.07766252 0.13729094 -0.030119993 -0.06866759 0.02294506 -0.030371288
00000000: b638 733d 0ba0 c63d e1cf 893d a822 94bd
00000010: 4e0a 943d 21d0 723e 182d 8cbd fa28 31be
00000020: f9cc 3b3d 6058 7dbc 9a19 103e 3db6 683e
00000030: e366 1d3e d73c 0e3e b711 df3d 7974 b23d
00000040: dde8 2bbd bb13 bb3c 945c d5bc 9602 d83d
00000050: 5207 87bc f580 d93c aa56 f23d 0aa1 88bd
00000060: 1cde 8b3c d83c 14bd 870d 9f3d ff95 0c3e
00000070: 34be f6bc 98a1 8cbd 47f7 bb3c 35cd f8bc

bn4.weight f4 [32]
3.2306147 3.24375 4.0089517 3.495625 5.2818274 4.0452037 3.7552633 3.8871064
3.720289 3.4415236 3.8272412 3.7446356 3.555851 3.878023 3.74501 3.6904259
3.5218146 3.5289922 3.5626104 3.2804704 3.2206461 4.681674 3.6972826 3.553773
3.44263 3.0675347 3.938794 3.6952639 3.4300315 3.4282486 3.6247907 3.903784
00000000: 64c2 4e40 9a99 4f40 5549 8040 52b8 5f40
00000010: bb04 a940 4f72 8140 3c56 7040 5ac6 7840
00000020: 3719 6e40 ec41 5c40 85f1 7440 1ca8 6f40
00000030: 1093 6340 8731 7840 3eae 6f40 f02f 6c40
00000040: 6965 6140 02db 6140 cf01 6440 3af3 5140
00000050: 111f 4e40 46d0 9540 47a0 6c40 0471 6340
00000060: 0d54 5c40 7d52 4440 3315 7c40 347f 6c40
00000070: a385 5b40 6d68 5b40 92fc 6740 99d7 7940

bn4.bias f4 [32]
0.9713176 1.0560697 1.1778919 1.2054077 1.2122834 1.1983837 0.9666574 1.1827097
1.2340759 1.1836419 1.277472 1.1450022 1.2836524 1.3851305 1.2922612 1.1214724
1.2194941 1.1444668 1.4321462 1.1695856 1.3189921 1.5220704 1.3032581 1.1599225
1.3423014 1.1466398 1.2863303 1.1666151 1.3778253 1.2946285 1.1484776 1.4785017
00000000: 45a8 783f 4b2d 873f 29c5 963f cd4a 9a3f
00000010: 1a2c 9b3f a364 993f dc76 773f 0863 973f
00000020: 33f6 9d3f 9481 973f 3484 a33f 6f8f 923f
00000030: b94e a43f f54b b13f d168 a53f 688c 8f3f
00000040: 6218 9c3f e37d 923f 9150 b73f fbb4 953f
00000050: bcd4 a83f 34d3 c23f 29d1 a63f 5778 943f
00000060: 88d0 ab3f 18c5 923f 79a6 a43f a553 953f
00000070: 945c b03f 63b6 a53f 5001 933f 8b3f bd3f

bn4.running_mean f4 [32]
-3.1704545 -1.3442363 -1.8013366 -4.2037954 -2.6838837 -5.678927 1.1147625 1.5852914
-1.3161187 -0.53507745 -0.6321164 -2.7000604 -0.56132716 -7.209559 -0.84138346 -0.030966474
-2.5079293 1.9195509 -0.0099944575 1.1906253 2.5142806 -0.0060427412 0.3913365 1.6520952
-1.9245778 -2.9533334 -4.1014295 -1.1919619 -3.0014367 0.47681344 -2.6028695 1.2828262
00000000: bae8 4ac0 ef0f acbf 3392 e6bf 7e85 86c0
00000010: c0c4 2bc0 c5b9 b5c0 8ab0 8e3f d4ea ca3f
00000020: 9476 a8bf d6fa 08bf 61d2 21bf cacd 2cc0
00000030: 23b3 0fbf b5b4 e6c0 e864 57bf 67ad fdbc
00000040: ea81 20c0 d8b3 f53f cbbf 23bc 6966 983f
00000050: f9e9 2040 3002 c6bb 425d c83e db77 d33f
00000060: 9158 f6bf 6a03 3dc0 e93e 83c0 3592 98bf
00000070: 8a17 40c0 e420 f43e 6a95 26c0 a633 a43f

bn4.running_var f4 [32]
8.532757 11.908647 8.163121 9.013151 17.17743 8.493794 12.284591 9.266101
10.895515 9.676602 9.212642 7.8736124 6.5382495 10.7065115 9.146438 10.748631
14.865058 12.7161255 10.744433 11.160726 13.385544 11.506983 11.336021 11.59656
13.4886265 11.115425 8.881327 10.675672 8.178956 12.294277 11.035701 10.9177
00000000: 2c86 0841 d189 3e41 259c 0241 de35 1041
00000010: 606b 8941 95e6 0741 af8d 4441 f341 1441
00000020: 0854 2e41 5dd3 1a41 fb66 1341 a2f4 fb40
00000030: 5739 d140 df4d 2b41 cf57 1241 64fa 2b41
00000040: 47d7 6d41 4075 4b41 33e9 2b41 5592 3241
00000050: 302b 5641 9a1c 3841 5860 3541 828b 3941
00000060: 6ad1 5741 c8d8 3141 ea19 0e41 8dcf 2a41
00000070: 01dd 0241 5cb5 4441 3b92 3041 e6ae 2e41

fc1.weight f4 [38, 32]
-0.6098097 -0.28306103 0.6626114 -0.08757522 0.13115345 0.33066124 -1.093992 0.53853667
-2.0248678 0.122124866 -0.028520118 -1.1381831 0.5196045 0.23096368 0.39161065 -0.69639564
0.07237171 -0.0897918 0.13305768 0.37702057 -0.221615 0.50567645 -0.5979866 -0.038100827
-0.64879197 -0.17408453 -0.41551295 -0.80257064 -0.5647231 0.057909798 0.041851602 -0.3836908
0.25615677 0.3359099 0.9078788 -0.56229204 0.2195494 -1.5696009 -0.020235477 0.5617146
0.16048057 -0.75226295 0.24481888 -0.13442853 -0.38448608 -1.8137703 -0.8997903 -1.095815
-0.52312934 0.72013295 0.17020333 0.54938823 -0.36790973 0.5788759 0.65088296 -0.44793686
-0.97903997 0.04360149 -0.35960063 -0.61526304 0.14399016 -0.6444253 -0.32202247 -0.1252412
-0.93641835 -1.5376316 0.3893979 -1.0824369 0.12965013 0.43331614 -0.28319994 -0.074471
-0.39531055 0.48132062 -1.1577333 0.6409402 -0.31832257 -0.9244656 0.001599795 -0.6024167
-1.471732 0.54402065 -0.41803947 0.028064827 0.41288748 0.7379374 0.10695402 0.47567514
0.760623 0.44459295 -1.3239518 -0.7068427 -0.20108187 -0.08918613 -0.0311395 -0.0028857696
0.71382236 -0.58260417 -0.0030881085 -0.75377613 -1.42923 -1.140638 -0.13767351 0.093508735
-0.13443941 0.24888313 -1.136666 -0.30664194 0.71685755 -1.3826708 -0.47568697 -0.13454401
0.6803762 0.009896925 0.59332734 0.47671974 0.35378477 -0.2297666 -0.8859111 0.48864824
0.37663364 -0.5135266 0.1556503 -0.621756 -0.07596067 -0.30228797 0.4087777 -0.59961253
0.6133715 -0.14872472 0.12834188 -0.2314908 -1.3527265 -1.1734977 -0.47597867 0.39672083
0.1645971 -1.3712456 0.06346 -0.9482596 0.51605767 0.19512808 -0.25292343 -0.80505383
-0.2673641 -0.31633738 0.67623377 -1.177339 1.0163246 -0.6351496 -0.039435986 0.27264813
-0.1026191 0.1765189 -0.5063264 -0.08745802 -0.53271204 0.36713076 -0.17979872 -0.9576754
-1.2974231 -0.47142246 0.19976655 -0.42976692 -1.8588681 0.55443865 -1.3720492 0.78952813
-0.958385 0.7505739 -1.1800135 0.484071 0.6369281 0.633299 0.3252968 -0.12232564
-0.092351995 -0.572078 -0.068025835 -1.1936712 0.019766387 -0.37504056 -0.24229915 0.41558608
0.05242513 0.032430675 -0.916476 0.13423544 -0.09251612 -0.50846255 -0.668353 0.6167195
0.54299 -0.28691176 0.13208342 0.6364231 -0.83300644 -1.36769 -1.1837269 0.3703471
0.87158155 -0.770346 0.120075315 -0.8548112 -0.73566467 -0.8829081 -0.17680213 -0.17593288
-0.5977974 -0.19508311 -0.9958234 0.5845773 -0.35607454 -0.35889572 -0.32442108 -1.0142666
-0.35805845 0.83792317 -0.6065944 0.11803903 0.27968526 0.33522692 -0.15602453 0.102655165
-0.16737045 -0.7714415 -0.19081149 -1.6271937 0.4106154 -0.3052594 0.4656979 -0.31618953
-0.578087 0.17355394 -0.5961998 -0.20201229 0.020981608 -0.21411002 0.3915153 0.26884082
-0.035517264 0.6114317 -1.4811829 0.07851052 0.43884668 0.6935196 -0.12096154 -0.35113323
-0.44122216 -1.3203018 -0.25339386 -0.22231314 -0.8047054 -0.6353563 0.015756711 0.52217674
00000000: 7d1c 1cbf 60ed 90be e7a0 293f a35a b3bd
00000010: 174d 063e 6e4c a93e ee07 8cbf 8add 093f
00000020: 6f97 01c0 9a1c fa3d 06a3 e9bc fcaf 91bf
00000030: cd04 053f be81 6c3e 3181 c83e fc46 32bf
00000040: 9e37 943d c3e4 b7bd 4640 083e d708 c13e
00000050: 0bef 62be 0374 013f a615 19bf 9d0f 1cbd
00000060: 3b17 26bf 3743 32be 1dbe d4be 4575 4dbf
00000070: b191 10bf d332 6d3d 966c 2b3d 1f73 c4be
00000080: fb26 833e 62fc ab3e bf6a 683f 5ff2 0fbf
00000090: 8fd1 603e afe8 c8bf dfc4 a5bc 87cc 0f3f
000000a0: 0555 243e 4e94 40bf cdb1 7a3e a2a7 09be
000000b0: 5cdb c4be a029 e8bf a858 66bf aa43 8cbf
000000c0: ceeb 05bf a25a 383f c849 2e3e b5a4 0c3f
000000d0: aa5e bcbe 3631 143f 44a0 263f fb57 e5be
000000e0: 5da2 7abf 7a97 323d 931d b8be e181 1dbf
000000f0: 2872 133e 0ef9 24bf 21e0 a4be 3b3f 00be
00000100: 1db9 6fbf 1dd1 c4bf 295f c73e 4b8d 8abf
00000110: 01c3 043e 9ddb dd3e 95ff 90be 4084 98bd
00000120: 2566 cabe a86f f63e 9b30 94bf a814 243f
00000130: 2dfb a2be c7a9 6cbf 36b0 d13a fb37 1abf
00000140: b761 bcbf f044 0b3f 4509 d6be 35e8 e53c
00000150: fd65 d33e 77e9 3c3f b60a db3d b18b f33e
00000160: 30b8 423f b0a1 e33e 4177 a9bf a5f3 34bf
00000170: 68e8 4dbe 38a7 b6bd 4418 ffbc 2e1f 3dbb
00000180: 10bd 363f 8c25 15bf dd61 4abb 79f7 40bf
00000190: 02f1 b6bf 6d00 92bf 49fa 0cbe 8281 bf3d
000001a0: 7caa 09be 38db 7e3e 467e 91bf 2c00 9dbe
000001b0: fa83 373f 5bfb b0bf 3e8d f3be e8c5 09be
000001c0: 222d 2e3f b626 223c 4de4 173f 9c14 f43e
000001d0: 4723 b53e f047 6bbe 12cb 62bf 1a30 fa3e
000001e0: 20d6 c03e 7b76 03bf cb62 1f3e 672b 1fbf
000001f0: 4591 9bbd 7dc5 9abe 504b d13e 3580 19bf
00000200: ea05 1d3f 4b4b 18be 0e6c 033e ed0b 6dbe
00000210: 2426 adbf 2c35 96bf 7ab3 f3be fe1e cb3e
00000220: 248c 283e fa84 afbf 51f7 813d 24c1 72bf
00000230: 5b1c 043f a8cf 473e 2e7f 81be 0218 4ebf
00000240: f3e3 88be f9f6 a1be a81d 2d3f 0bb3 96bf
00000250: ed16 823f 2a99 22bf a187 21bd 8998 8b3e
00000260: f629 d2bd 5fc1 343e 9b9e 01bf 311d b3bd
00000270: d15f 08bf 90f8 bb3e 281d 38be 372a 75bf
00000280: f611 a6bf 495e f1be 9a8f 4c3e 690a dcbe
00000290: 64ef edbf b1ef 0d3f 4f9f afbf 841e 4a3f
000002a0: b858 75bf 9c25 403f af0a 97bf 27d8 f73e
000002b0: b80d 233f e21f 223f 4d8d a63e dd85 fabd
000002c0: 0b23 bdbd b473 12bf 2151 8bbd 38ca 98bf
000002d0: 1eed a13c 5105 c0be 451d 78be b3c7 d43e
000002e0: bcbb 563d 07d6 043d 2c9e 6abf 0475 093e
000002f0: 1779 bdbd 9a2a 02bf 2f19 2bbf 54e1 1d3f
00000300: 6501 0b3f 19e6 92be e040 073e a0ec 223f
00000310: e93f 55bf 7710 afbf 5d84 97bf 239e bd3e
00000320: f81f 5f3f 6535 45bf 0cea f53d e8d4 5abf
00000330: 8554 3cbf 4406 62bf 9e0b 35be c027 34be
00000340: 4009 19bf dec3 47be 48ee 7ebf dca6 153f
00000350: 674f b6be 2ec1 b7be 851a a6be 7dd3 81bf
00000360: 7053 b7be 2282 563f c549 1bbf 72be f13d
00000370: e832 8f3e dda2 ab3e e5c4 1fbe df3c d23d
00000380: 2963 2bbe 317d 45bf 1664 43be e247 d0bf
00000390: 2f3c d23e f64a 9cbe f56f ee3e 98e3 a1be
000003a0: 82fd 13bf 20b8 313e 8da0 18bf 4fdc 4ebe
000003b0: 9fe1 ab3c a83f 5bbe b274 c83e 81a5 893e
000003c0: 8d7a 11bd ca86 1c3f 6797 bdbf 20ca a03d
000003d0: 83b0 e03e 808a 313f afba f7bd bcc7 b3be
000003e0: dfe7 e1be a6ff a8bf d7bc 81be 0ea6 63be
000003f0: 2c01 4ebf b6a6 22bf 3814 813c 60ad 053f

fc1.bias f4 [38]
0.033179663 -0.28915048 0.03454517 -0.058471046 0.0772562 -0.12302786 0.16505879 -0.16798972
-0.34319323 0.16551478 0.17660567 0.22878803 -0.16926126 -0.117752284 0.18824598 0.011809058
0.11069578 0.16574666 0.04327494 -0.04420473 -0.12631051 -0.12050146 0.121179074 -0.13669316
0.06581676 0.015095431 0.09006175 -0.0041952273 -0.107423685 -0.21508707 -0.09882916 -0.100392
-0.006167244 0.0449414 0.005421044 -0.11081581 0.22587836 0.062114596
00000000: 66e7 073d 880b 94be 3c7f 0d3d 567f 6fbd
00000010: 8038 9e3d 08f6 fbbd 2c05 293e 7f05 2cbe
00000020: 06b7 afbe b57c 293e 1ed8 343e 6947 6a3e
00000030: d352 2dbe 1c28 f1bd 8ec3 403e c77a 413c
00000040: 78b4 e23d 7eb9 293e 1041 313d 0510 35bd
00000050: 8b57 01be 78c9 f6bd bc2c f83d 4bf9 0bbe
00000060: f0ca 863d d452 773c 4b72 b83d 1e78 89bb
00000070: f300 dcbd c93f 5cbe f166 cabd 529a cdbd
00000080: 9816 cabb 7914 383d 03a3 b13b 66f3 e2bd
00000090: a84c 673e e06b 7e3d
